+ trap 'cat /sys/fs/cgroup/memory/$(cat /proc/$$/cgroup | grep -oP '\''^.*:memory:\K.*$'\'')/memory.max_usage_in_bytes > /import/ch-sc-swdump2/surajk/artifact_root/apps/ch__jit_bert_bert_base_uncased_inference/run/max_used_host_memory.0 && grep --text -oP "slurmJobId=$SLURM_JOB_ID.*Physical RDU ID: \K\d+" /var/log/sambaflow/runtime/sn.log > /import/ch-sc-swdump2/surajk/artifact_root/apps/ch__jit_bert_bert_base_uncased_inference/run/physical_chip_ids.0 || true' EXIT
+ cd /import/ch-sc-swdump2/surajk/sambaflow_PIaWV9hw0p/frontend/jit/torch_rdu/test/python/
+ ulimit -l unlimited
+ mkdir -p /scratch/surajk/.cache/huggingface
+ export PATH=/usr/local/bin:/bin:/usr/local/bin:/usr/bin:/usr/local/sbin:/usr/sbin
+ PATH=/usr/local/bin:/bin:/usr/local/bin:/usr/bin:/usr/local/sbin:/usr/sbin
+ export PYTHONPATH=/import/ch-sc-swdump2/surajk/sambaflow_PIaWV9hw0p/venv/lib/python3.7/site-packages:/import/ch-sc-swdump2/surajk/sambaflow_PIaWV9hw0p/sambaflow:/import/ch-sc-swdump2/surajk/sambaflow_PIaWV9hw0p/frontend/jit/torch_rdu/test/python/
+ PYTHONPATH=/import/ch-sc-swdump2/surajk/sambaflow_PIaWV9hw0p/venv/lib/python3.7/site-packages:/import/ch-sc-swdump2/surajk/sambaflow_PIaWV9hw0p/sambaflow:/import/ch-sc-swdump2/surajk/sambaflow_PIaWV9hw0p/frontend/jit/torch_rdu/test/python/
+ export LD_LIBRARY_PATH=/import/ch-sc-swdump2/surajk/sambaflow_PIaWV9hw0p/lib:/opt/llvm12/lib:
+ LD_LIBRARY_PATH=/import/ch-sc-swdump2/surajk/sambaflow_PIaWV9hw0p/lib:/opt/llvm12/lib:
+ export SOFTWARE_HOME=/import/ch-sc-swdump2/surajk/sambaflow_PIaWV9hw0p
+ SOFTWARE_HOME=/import/ch-sc-swdump2/surajk/sambaflow_PIaWV9hw0p
+ export ARTIFACT_ROOT=/import/ch-sc-swdump2/surajk/artifact_root
+ ARTIFACT_ROOT=/import/ch-sc-swdump2/surajk/artifact_root
+ true
+ OMP_NUM_THREADS=8
+ python experiments/bert_base_uncased.py
PyTorch version 1.10.2+cpu available.
TensorFlow version 2.7.0 available.
Some weights of the model checkpoint at bert-base-uncased were not used when initializing BertForMaskedLM: ['cls.seq_relationship.weight', 'cls.seq_relationship.bias']
- This IS expected if you are initializing BertForMaskedLM from the checkpoint of a model trained on another task or with another architecture (e.g. initializing a BertForSequenceClassification model from a BertForPretraining model).
- This IS NOT expected if you are initializing BertForMaskedLM from the checkpoint of a model that you expect to be exactly identical (initializing a BertForSequenceClassification model from a BertForSequenceClassification model).
[compiler:info] [torch_rdu] empty_strided ...
[compiler:info] [torch_rdu] empty for size: {1, 16} ...
[compiler:info] [torch_rdu] Copy from: 0x55c8887c2830 to: 0x55c8879b07c0
[compiler:info]   Source: 128 bytes with name  0x0
[compiler:info]   Dest: 128 bytes with name  0x0
[compiler:info] [torch_rdu] empty_strided ...
[compiler:info] [torch_rdu] empty for size: {1, 16} ...
[compiler:info] [torch_rdu] Copy from: 0x55c888776c80 to: 0x55c887614ff0
[compiler:info]   Source: 128 bytes with name  0x0
[compiler:info]   Dest: 128 bytes with name  0x0
[compiler:info] [torch_rdu] empty_strided ...
[compiler:info] [torch_rdu] empty for size: {1, 16} ...
[compiler:info] [torch_rdu] Copy from: 0x55c88877b920 to: 0x55c888728830
[compiler:info]   Source: 128 bytes with name  0x0
[compiler:info]   Dest: 128 bytes with name  0x0
[compiler:info] [torch_rdu] empty_strided ...
[compiler:info] [torch_rdu] empty for size: {30522, 768} ...
[compiler:info] [torch_rdu] Copy from: 0x55c88877c0a0 to: 0x55c8887ce020
[compiler:info]   Source: 93763584 bytes with name  0x55c8887c2900
[compiler:info]   Dest: 93763584 bytes with name  0x0
[compiler:info] RDU shallow_copy_and_detach &&0 0x55c8887ce020 1 has_backanno: 0
[compiler:info] RDU shallow_copy_and_detach &0 0x55c896e210d0 1 has_backanno: 0
[compiler:info] [torch_rdu] empty_strided ...
[compiler:info] [torch_rdu] empty for size: {512, 768} ...
[compiler:info] [torch_rdu] Copy from: 0x55c88877c170 to: 0x55c8887ce020
[compiler:info]   Source: 1572864 bytes with name  0x55c88877dc00
[compiler:info]   Dest: 1572864 bytes with name  0x0
[compiler:info] RDU shallow_copy_and_detach &&0 0x55c8887ce020 1 has_backanno: 0
[compiler:info] RDU shallow_copy_and_detach &0 0x55c896e210d0 1 has_backanno: 0
[compiler:info] [torch_rdu] empty_strided ...
[compiler:info] [torch_rdu] empty for size: {2, 768} ...
[compiler:info] [torch_rdu] Copy from: 0x55c88879abc0 to: 0x55c8887ce020
[compiler:info]   Source: 6144 bytes with name  0x55c8887a9950
[compiler:info]   Dest: 6144 bytes with name  0x0
[compiler:info] RDU shallow_copy_and_detach &&0 0x55c8887ce020 1 has_backanno: 0
[compiler:info] RDU shallow_copy_and_detach &0 0x55c896e210d0 1 has_backanno: 0
[compiler:info] [torch_rdu] empty_strided ...
[compiler:info] [torch_rdu] empty for size: {768} ...
[compiler:info] [torch_rdu] Copy from: 0x55c8888862d0 to: 0x55c8887ce020
[compiler:info]   Source: 3072 bytes with name  0x55c888879db0
[compiler:info]   Dest: 3072 bytes with name  0x0
[compiler:info] RDU shallow_copy_and_detach &&0 0x55c8887ce020 1 has_backanno: 0
[compiler:info] RDU shallow_copy_and_detach &0 0x55c896e210d0 1 has_backanno: 0
[compiler:info] [torch_rdu] empty_strided ...
[compiler:info] [torch_rdu] empty for size: {768} ...
[compiler:info] [torch_rdu] Copy from: 0x55c888759570 to: 0x55c896e210d0
[compiler:info]   Source: 3072 bytes with name  0x55c888759640
[compiler:info]   Dest: 3072 bytes with name  0x0
[compiler:info] RDU shallow_copy_and_detach &&0 0x55c896e210d0 1 has_backanno: 0
[compiler:info] RDU shallow_copy_and_detach &0 0x55c8887ce020 1 has_backanno: 0
[compiler:info] [torch_rdu] empty_strided ...
[compiler:info] [torch_rdu] empty for size: {1, 512} ...
[compiler:info] [torch_rdu] Copy from: 0x55c888776d50 to: 0x55c896e210d0
[compiler:info]   Source: 4096 bytes with name  0x0
[compiler:info]   Dest: 4096 bytes with name  0x0
[compiler:info] [torch_rdu] empty_strided ...
[compiler:info] [torch_rdu] empty for size: {768, 768} ...
[compiler:info] [torch_rdu] Copy from: 0x55c8887cb4d0 to: 0x55c8887ce020
[compiler:info]   Source: 2359296 bytes with name  0x55c88875c040
[compiler:info]   Dest: 2359296 bytes with name  0x0
[compiler:info] RDU shallow_copy_and_detach &&0 0x55c8887ce020 1 has_backanno: 0
[compiler:info] RDU shallow_copy_and_detach &0 0x55c888721160 1 has_backanno: 0
[compiler:info] [torch_rdu] empty_strided ...
[compiler:info] [torch_rdu] empty for size: {768} ...
[compiler:info] [torch_rdu] Copy from: 0x55c888879950 to: 0x55c888721160
[compiler:info]   Source: 3072 bytes with name  0x55c888879a20
[compiler:info]   Dest: 3072 bytes with name  0x0
[compiler:info] RDU shallow_copy_and_detach &&0 0x55c888721160 1 has_backanno: 0
[compiler:info] RDU shallow_copy_and_detach &0 0x55c8887ce020 1 has_backanno: 0
[compiler:info] [torch_rdu] empty_strided ...
[compiler:info] [torch_rdu] empty for size: {768, 768} ...
[compiler:info] [torch_rdu] Copy from: 0x55c888869d70 to: 0x55c888721160
[compiler:info]   Source: 2359296 bytes with name  0x55c888869e40
[compiler:info]   Dest: 2359296 bytes with name  0x0
[compiler:info] RDU shallow_copy_and_detach &&0 0x55c888721160 1 has_backanno: 0
[compiler:info] RDU shallow_copy_and_detach &0 0x55c8887ce020 1 has_backanno: 0
[compiler:info] [torch_rdu] empty_strided ...
[compiler:info] [torch_rdu] empty for size: {768} ...
[compiler:info] [torch_rdu] Copy from: 0x55c896e222e0 to: 0x55c8887ce020
[compiler:info]   Source: 3072 bytes with name  0x55c896e223b0
[compiler:info]   Dest: 3072 bytes with name  0x0
[compiler:info] RDU shallow_copy_and_detach &&0 0x55c8887ce020 1 has_backanno: 0
[compiler:info] RDU shallow_copy_and_detach &0 0x55c888721160 1 has_backanno: 0
[compiler:info] [torch_rdu] empty_strided ...
[compiler:info] [torch_rdu] empty for size: {768, 768} ...
[compiler:info] [torch_rdu] Copy from: 0x55c896e22470 to: 0x55c8887ce020
[compiler:info]   Source: 2359296 bytes with name  0x55c8887ce510
[compiler:info]   Dest: 2359296 bytes with name  0x0
[compiler:info] RDU shallow_copy_and_detach &&0 0x55c8887ce020 1 has_backanno: 0
[compiler:info] RDU shallow_copy_and_detach &0 0x55c888721160 1 has_backanno: 0
[compiler:info] [torch_rdu] empty_strided ...
[compiler:info] [torch_rdu] empty for size: {768} ...
[compiler:info] [torch_rdu] Copy from: 0x55c8887cf2b0 to: 0x55c888721160
[compiler:info]   Source: 3072 bytes with name  0x55c8887cf3b0
[compiler:info]   Dest: 3072 bytes with name  0x0
[compiler:info] RDU shallow_copy_and_detach &&0 0x55c888721160 1 has_backanno: 0
[compiler:info] RDU shallow_copy_and_detach &0 0x55c8887ce020 1 has_backanno: 0
[compiler:info] [torch_rdu] empty_strided ...
[compiler:info] [torch_rdu] empty for size: {768, 768} ...
[compiler:info] [torch_rdu] Copy from: 0x55c896e21560 to: 0x55c888721160
[compiler:info]   Source: 2359296 bytes with name  0x55c8887cf710
[compiler:info]   Dest: 2359296 bytes with name  0x0
[compiler:info] RDU shallow_copy_and_detach &&0 0x55c888721160 1 has_backanno: 0
[compiler:info] RDU shallow_copy_and_detach &0 0x55c8887ce020 1 has_backanno: 0
[compiler:info] [torch_rdu] empty_strided ...
[compiler:info] [torch_rdu] empty for size: {768} ...
[compiler:info] [torch_rdu] Copy from: 0x55c8887cf860 to: 0x55c8887ce020
[compiler:info]   Source: 3072 bytes with name  0x55c8887cf930
[compiler:info]   Dest: 3072 bytes with name  0x0
[compiler:info] RDU shallow_copy_and_detach &&0 0x55c8887ce020 1 has_backanno: 0
[compiler:info] RDU shallow_copy_and_detach &0 0x55c888721160 1 has_backanno: 0
[compiler:info] [torch_rdu] empty_strided ...
[compiler:info] [torch_rdu] empty for size: {768} ...
[compiler:info] [torch_rdu] Copy from: 0x55c8887cf9f0 to: 0x55c8887ce020
[compiler:info]   Source: 3072 bytes with name  0x55c8887d2500
[compiler:info]   Dest: 3072 bytes with name  0x0
[compiler:info] RDU shallow_copy_and_detach &&0 0x55c8887ce020 1 has_backanno: 0
[compiler:info] RDU shallow_copy_and_detach &0 0x55c888721160 1 has_backanno: 0
[compiler:info] [torch_rdu] empty_strided ...
[compiler:info] [torch_rdu] empty for size: {768} ...
[compiler:info] [torch_rdu] Copy from: 0x55c8887d32a0 to: 0x55c888721160
[compiler:info]   Source: 3072 bytes with name  0x55c8887d33a0
[compiler:info]   Dest: 3072 bytes with name  0x0
[compiler:info] RDU shallow_copy_and_detach &&0 0x55c888721160 1 has_backanno: 0
[compiler:info] RDU shallow_copy_and_detach &0 0x55c8887ce020 1 has_backanno: 0
[compiler:info] [torch_rdu] empty_strided ...
[compiler:info] [torch_rdu] empty for size: {3072, 768} ...
[compiler:info] [torch_rdu] Copy from: 0x55c8887d4430 to: 0x55c888721160
[compiler:info]   Source: 9437184 bytes with name  0x55c8887d4530
[compiler:info]   Dest: 9437184 bytes with name  0x0
[compiler:info] RDU shallow_copy_and_detach &&0 0x55c888721160 1 has_backanno: 0
[compiler:info] RDU shallow_copy_and_detach &0 0x55c8887ce020 1 has_backanno: 0
[compiler:info] [torch_rdu] empty_strided ...
[compiler:info] [torch_rdu] empty for size: {3072} ...
[compiler:info] [torch_rdu] Copy from: 0x55c8887d76d0 to: 0x55c8887ce020
[compiler:info]   Source: 12288 bytes with name  0x55c8887d77a0
[compiler:info]   Dest: 12288 bytes with name  0x0
[compiler:info] RDU shallow_copy_and_detach &&0 0x55c8887ce020 1 has_backanno: 0
[compiler:info] RDU shallow_copy_and_detach &0 0x55c888721160 1 has_backanno: 0
[compiler:info] [torch_rdu] empty_strided ...
[compiler:info] [torch_rdu] empty for size: {768, 3072} ...
[compiler:info] [torch_rdu] Copy from: 0x55c8887d3b40 to: 0x55c8887ce020
[compiler:info]   Source: 9437184 bytes with name  0x55c8887d3c40
[compiler:info]   Dest: 9437184 bytes with name  0x0
[compiler:info] RDU shallow_copy_and_detach &&0 0x55c8887ce020 1 has_backanno: 0
[compiler:info] RDU shallow_copy_and_detach &0 0x55c888721160 1 has_backanno: 0
[compiler:info] [torch_rdu] empty_strided ...
[compiler:info] [torch_rdu] empty for size: {768} ...
[compiler:info] [torch_rdu] Copy from: 0x55c8887d9160 to: 0x55c888721160
[compiler:info]   Source: 3072 bytes with name  0x55c8887d9260
[compiler:info]   Dest: 3072 bytes with name  0x0
[compiler:info] RDU shallow_copy_and_detach &&0 0x55c888721160 1 has_backanno: 0
[compiler:info] RDU shallow_copy_and_detach &0 0x55c8887ce020 1 has_backanno: 0
[compiler:info] [torch_rdu] empty_strided ...
[compiler:info] [torch_rdu] empty for size: {768} ...
[compiler:info] [torch_rdu] Copy from: 0x55c8887da250 to: 0x55c888721160
[compiler:info]   Source: 3072 bytes with name  0x55c8887da320
[compiler:info]   Dest: 3072 bytes with name  0x0
[compiler:info] RDU shallow_copy_and_detach &&0 0x55c888721160 1 has_backanno: 0
[compiler:info] RDU shallow_copy_and_detach &0 0x55c8887ce020 1 has_backanno: 0
[compiler:info] [torch_rdu] empty_strided ...
[compiler:info] [torch_rdu] empty for size: {768} ...
[compiler:info] [torch_rdu] Copy from: 0x55c8887db0c0 to: 0x55c8887ce020
[compiler:info]   Source: 3072 bytes with name  0x55c8887db1c0
[compiler:info]   Dest: 3072 bytes with name  0x0
[compiler:info] RDU shallow_copy_and_detach &&0 0x55c8887ce020 1 has_backanno: 0
[compiler:info] RDU shallow_copy_and_detach &0 0x55c888721160 1 has_backanno: 0
[compiler:info] [torch_rdu] empty_strided ...
[compiler:info] [torch_rdu] empty for size: {768, 768} ...
[compiler:info] [torch_rdu] Copy from: 0x55c88875b770 to: 0x55c8887ce020
[compiler:info]   Source: 2359296 bytes with name  0x55c88875b870
[compiler:info]   Dest: 2359296 bytes with name  0x0
[compiler:info] RDU shallow_copy_and_detach &&0 0x55c8887ce020 1 has_backanno: 0
[compiler:info] RDU shallow_copy_and_detach &0 0x55c888721160 1 has_backanno: 0
[compiler:info] [torch_rdu] empty_strided ...
[compiler:info] [torch_rdu] empty for size: {768} ...
[compiler:info] [torch_rdu] Copy from: 0x55c8887d7f20 to: 0x55c888721160
[compiler:info]   Source: 3072 bytes with name  0x55c8887d8020
[compiler:info]   Dest: 3072 bytes with name  0x0
[compiler:info] RDU shallow_copy_and_detach &&0 0x55c888721160 1 has_backanno: 0
[compiler:info] RDU shallow_copy_and_detach &0 0x55c8887ce020 1 has_backanno: 0
[compiler:info] [torch_rdu] empty_strided ...
[compiler:info] [torch_rdu] empty for size: {768, 768} ...
[compiler:info] [torch_rdu] Copy from: 0x55c8887d80e0 to: 0x55c888721160
[compiler:info]   Source: 2359296 bytes with name  0x55c8887cd810
[compiler:info]   Dest: 2359296 bytes with name  0x0
[compiler:info] RDU shallow_copy_and_detach &&0 0x55c888721160 1 has_backanno: 0
[compiler:info] RDU shallow_copy_and_detach &0 0x55c8887ce020 1 has_backanno: 0
[compiler:info] [torch_rdu] empty_strided ...
[compiler:info] [torch_rdu] empty for size: {768} ...
[compiler:info] [torch_rdu] Copy from: 0x55c8887cd8d0 to: 0x55c8887ce020
[compiler:info]   Source: 3072 bytes with name  0x55c8887cd9d0
[compiler:info]   Dest: 3072 bytes with name  0x0
[compiler:info] RDU shallow_copy_and_detach &&0 0x55c8887ce020 1 has_backanno: 0
[compiler:info] RDU shallow_copy_and_detach &0 0x55c888721160 1 has_backanno: 0
[compiler:info] [torch_rdu] empty_strided ...
[compiler:info] [torch_rdu] empty for size: {768, 768} ...
[compiler:info] [torch_rdu] Copy from: 0x55c8887cdd40 to: 0x55c8887ce020
[compiler:info]   Source: 2359296 bytes with name  0x55c8887cde40
[compiler:info]   Dest: 2359296 bytes with name  0x0
[compiler:info] RDU shallow_copy_and_detach &&0 0x55c8887ce020 1 has_backanno: 0
[compiler:info] RDU shallow_copy_and_detach &0 0x55c888721160 1 has_backanno: 0
[compiler:info] [torch_rdu] empty_strided ...
[compiler:info] [torch_rdu] empty for size: {768} ...
[compiler:info] [torch_rdu] Copy from: 0x55c8887e9980 to: 0x55c888721160
[compiler:info]   Source: 3072 bytes with name  0x55c8887cdf60
[compiler:info]   Dest: 3072 bytes with name  0x0
[compiler:info] RDU shallow_copy_and_detach &&0 0x55c888721160 1 has_backanno: 0
[compiler:info] RDU shallow_copy_and_detach &0 0x55c8887ce020 1 has_backanno: 0
[compiler:info] [torch_rdu] empty_strided ...
[compiler:info] [torch_rdu] empty for size: {768, 768} ...
[compiler:info] [torch_rdu] Copy from: 0x55c8887ea1d0 to: 0x55c888721160
[compiler:info]   Source: 2359296 bytes with name  0x55c8887ea2d0
[compiler:info]   Dest: 2359296 bytes with name  0x0
[compiler:info] RDU shallow_copy_and_detach &&0 0x55c888721160 1 has_backanno: 0
[compiler:info] RDU shallow_copy_and_detach &0 0x55c8887ce020 1 has_backanno: 0
[compiler:info] [torch_rdu] empty_strided ...
[compiler:info] [torch_rdu] empty for size: {768} ...
[compiler:info] [torch_rdu] Copy from: 0x55c8887ea3f0 to: 0x55c8887ce020
[compiler:info]   Source: 3072 bytes with name  0x55c8887f14b0
[compiler:info]   Dest: 3072 bytes with name  0x0
[compiler:info] RDU shallow_copy_and_detach &&0 0x55c8887ce020 1 has_backanno: 0
[compiler:info] RDU shallow_copy_and_detach &0 0x55c888721160 1 has_backanno: 0
[compiler:info] [torch_rdu] empty_strided ...
[compiler:info] [torch_rdu] empty for size: {768} ...
[compiler:info] [torch_rdu] Copy from: 0x55c8887f24d0 to: 0x55c8887ce020
[compiler:info]   Source: 3072 bytes with name  0x55c8887f25a0
[compiler:info]   Dest: 3072 bytes with name  0x0
[compiler:info] RDU shallow_copy_and_detach &&0 0x55c8887ce020 1 has_backanno: 0
[compiler:info] RDU shallow_copy_and_detach &0 0x55c888721160 1 has_backanno: 0
[compiler:info] [torch_rdu] empty_strided ...
[compiler:info] [torch_rdu] empty for size: {768} ...
[compiler:info] [torch_rdu] Copy from: 0x55c8887f3340 to: 0x55c888721160
[compiler:info]   Source: 3072 bytes with name  0x55c8887f3440
[compiler:info]   Dest: 3072 bytes with name  0x0
[compiler:info] RDU shallow_copy_and_detach &&0 0x55c888721160 1 has_backanno: 0
[compiler:info] RDU shallow_copy_and_detach &0 0x55c8887ce020 1 has_backanno: 0
[compiler:info] [torch_rdu] empty_strided ...
[compiler:info] [torch_rdu] empty for size: {3072, 768} ...
[compiler:info] [torch_rdu] Copy from: 0x55c8887f0d40 to: 0x55c888721160
[compiler:info]   Source: 9437184 bytes with name  0x55c8887f0e40
[compiler:info]   Dest: 9437184 bytes with name  0x0
[compiler:info] RDU shallow_copy_and_detach &&0 0x55c888721160 1 has_backanno: 0
[compiler:info] RDU shallow_copy_and_detach &0 0x55c8887ce020 1 has_backanno: 0
[compiler:info] [torch_rdu] empty_strided ...
[compiler:info] [torch_rdu] empty for size: {3072} ...
[compiler:info] [torch_rdu] Copy from: 0x55c8887f0f60 to: 0x55c8887ce020
[compiler:info]   Source: 12288 bytes with name  0x55c8887f1060
[compiler:info]   Dest: 12288 bytes with name  0x0
[compiler:info] RDU shallow_copy_and_detach &&0 0x55c8887ce020 1 has_backanno: 0
[compiler:info] RDU shallow_copy_and_detach &0 0x55c888721160 1 has_backanno: 0
[compiler:info] [torch_rdu] empty_strided ...
[compiler:info] [torch_rdu] empty for size: {768, 3072} ...
[compiler:info] [torch_rdu] Copy from: 0x55c8887f1370 to: 0x55c8887ce020
[compiler:info]   Source: 9437184 bytes with name  0x55c8887f7b50
[compiler:info]   Dest: 9437184 bytes with name  0x0
[compiler:info] RDU shallow_copy_and_detach &&0 0x55c8887ce020 1 has_backanno: 0
[compiler:info] RDU shallow_copy_and_detach &0 0x55c888721160 1 has_backanno: 0
[compiler:info] [torch_rdu] empty_strided ...
[compiler:info] [torch_rdu] empty for size: {768} ...
[compiler:info] [torch_rdu] Copy from: 0x55c8887f88f0 to: 0x55c888721160
[compiler:info]   Source: 3072 bytes with name  0x55c8887f89f0
[compiler:info]   Dest: 3072 bytes with name  0x0
[compiler:info] RDU shallow_copy_and_detach &&0 0x55c888721160 1 has_backanno: 0
[compiler:info] RDU shallow_copy_and_detach &0 0x55c8887ce020 1 has_backanno: 0
[compiler:info] [torch_rdu] empty_strided ...
[compiler:info] [torch_rdu] empty for size: {768} ...
[compiler:info] [torch_rdu] Copy from: 0x55c8887f99e0 to: 0x55c888721160
[compiler:info]   Source: 3072 bytes with name  0x55c8887f9ae0
[compiler:info]   Dest: 3072 bytes with name  0x0
[compiler:info] RDU shallow_copy_and_detach &&0 0x55c888721160 1 has_backanno: 0
[compiler:info] RDU shallow_copy_and_detach &0 0x55c8887ce020 1 has_backanno: 0
[compiler:info] [torch_rdu] empty_strided ...
[compiler:info] [torch_rdu] empty for size: {768} ...
[compiler:info] [torch_rdu] Copy from: 0x55c8887fa880 to: 0x55c8887ce020
[compiler:info]   Source: 3072 bytes with name  0x55c8887fa980
[compiler:info]   Dest: 3072 bytes with name  0x0
[compiler:info] RDU shallow_copy_and_detach &&0 0x55c8887ce020 1 has_backanno: 0
[compiler:info] RDU shallow_copy_and_detach &0 0x55c888721160 1 has_backanno: 0
[compiler:info] [torch_rdu] empty_strided ...
[compiler:info] [torch_rdu] empty for size: {768, 768} ...
[compiler:info] [torch_rdu] Copy from: 0x55c8887f4750 to: 0x55c8887ce020
[compiler:info]   Source: 2359296 bytes with name  0x55c88878b580
[compiler:info]   Dest: 2359296 bytes with name  0x0
[compiler:info] RDU shallow_copy_and_detach &&0 0x55c8887ce020 1 has_backanno: 0
[compiler:info] RDU shallow_copy_and_detach &0 0x55c888721160 1 has_backanno: 0
[compiler:info] [torch_rdu] empty_strided ...
[compiler:info] [torch_rdu] empty for size: {768} ...
[compiler:info] [torch_rdu] Copy from: 0x55c88878b6d0 to: 0x55c888721160
[compiler:info]   Source: 3072 bytes with name  0x55c8888796c0
[compiler:info]   Dest: 3072 bytes with name  0x0
[compiler:info] RDU shallow_copy_and_detach &&0 0x55c888721160 1 has_backanno: 0
[compiler:info] RDU shallow_copy_and_detach &0 0x55c8887ce020 1 has_backanno: 0
[compiler:info] [torch_rdu] empty_strided ...
[compiler:info] [torch_rdu] empty for size: {768, 768} ...
[compiler:info] [torch_rdu] Copy from: 0x55c888879780 to: 0x55c888721160
[compiler:info]   Source: 2359296 bytes with name  0x55c8887cae30
[compiler:info]   Dest: 2359296 bytes with name  0x0
[compiler:info] RDU shallow_copy_and_detach &&0 0x55c888721160 1 has_backanno: 0
[compiler:info] RDU shallow_copy_and_detach &0 0x55c8887ce020 1 has_backanno: 0
[compiler:info] [torch_rdu] empty_strided ...
[compiler:info] [torch_rdu] empty for size: {768} ...
[compiler:info] [torch_rdu] Copy from: 0x55c8887caf50 to: 0x55c8887ce020
[compiler:info]   Source: 3072 bytes with name  0x55c8887fd940
[compiler:info]   Dest: 3072 bytes with name  0x0
[compiler:info] RDU shallow_copy_and_detach &&0 0x55c8887ce020 1 has_backanno: 0
[compiler:info] RDU shallow_copy_and_detach &0 0x55c888721160 1 has_backanno: 0
[compiler:info] [torch_rdu] empty_strided ...
[compiler:info] [torch_rdu] empty for size: {768, 768} ...
[compiler:info] [torch_rdu] Copy from: 0x55c8887fad20 to: 0x55c8887ce020
[compiler:info]   Source: 2359296 bytes with name  0x55c8887fae20
[compiler:info]   Dest: 2359296 bytes with name  0x0
[compiler:info] RDU shallow_copy_and_detach &&0 0x55c8887ce020 1 has_backanno: 0
[compiler:info] RDU shallow_copy_and_detach &0 0x55c888721160 1 has_backanno: 0
[compiler:info] [torch_rdu] empty_strided ...
[compiler:info] [torch_rdu] empty for size: {768} ...
[compiler:info] [torch_rdu] Copy from: 0x55c8887fbbc0 to: 0x55c888721160
[compiler:info]   Source: 3072 bytes with name  0x55c8887fbcc0
[compiler:info]   Dest: 3072 bytes with name  0x0
[compiler:info] RDU shallow_copy_and_detach &&0 0x55c888721160 1 has_backanno: 0
[compiler:info] RDU shallow_copy_and_detach &0 0x55c8887ce020 1 has_backanno: 0
[compiler:info] [torch_rdu] empty_strided ...
[compiler:info] [torch_rdu] empty for size: {768, 768} ...
[compiler:info] [torch_rdu] Copy from: 0x55c8887ea4d0 to: 0x55c888721160
[compiler:info]   Source: 2359296 bytes with name  0x55c8887ea5d0
[compiler:info]   Dest: 2359296 bytes with name  0x0
[compiler:info] RDU shallow_copy_and_detach &&0 0x55c888721160 1 has_backanno: 0
[compiler:info] RDU shallow_copy_and_detach &0 0x55c8887ce020 1 has_backanno: 0
[compiler:info] [torch_rdu] empty_strided ...
[compiler:info] [torch_rdu] empty for size: {768} ...
[compiler:info] [torch_rdu] Copy from: 0x55c8887eb370 to: 0x55c8887ce020
[compiler:info]   Source: 3072 bytes with name  0x55c8887eb470
[compiler:info]   Dest: 3072 bytes with name  0x0
[compiler:info] RDU shallow_copy_and_detach &&0 0x55c8887ce020 1 has_backanno: 0
[compiler:info] RDU shallow_copy_and_detach &0 0x55c888721160 1 has_backanno: 0
[compiler:info] [torch_rdu] empty_strided ...
[compiler:info] [torch_rdu] empty for size: {768} ...
[compiler:info] [torch_rdu] Copy from: 0x55c8887ec460 to: 0x55c8887ce020
[compiler:info]   Source: 3072 bytes with name  0x55c8887ec560
[compiler:info]   Dest: 3072 bytes with name  0x0
[compiler:info] RDU shallow_copy_and_detach &&0 0x55c8887ce020 1 has_backanno: 0
[compiler:info] RDU shallow_copy_and_detach &0 0x55c888721160 1 has_backanno: 0
[compiler:info] [torch_rdu] empty_strided ...
[compiler:info] [torch_rdu] empty for size: {768} ...
[compiler:info] [torch_rdu] Copy from: 0x55c8887ed300 to: 0x55c888721160
[compiler:info]   Source: 3072 bytes with name  0x55c8887ed400
[compiler:info]   Dest: 3072 bytes with name  0x0
[compiler:info] RDU shallow_copy_and_detach &&0 0x55c888721160 1 has_backanno: 0
[compiler:info] RDU shallow_copy_and_detach &0 0x55c8887ce020 1 has_backanno: 0
[compiler:info] [torch_rdu] empty_strided ...
[compiler:info] [torch_rdu] empty for size: {3072, 768} ...
[compiler:info] [torch_rdu] Copy from: 0x55c8887fe150 to: 0x55c888721160
[compiler:info]   Source: 9437184 bytes with name  0x55c8887fe250
[compiler:info]   Dest: 9437184 bytes with name  0x0
[compiler:info] RDU shallow_copy_and_detach &&0 0x55c888721160 1 has_backanno: 0
[compiler:info] RDU shallow_copy_and_detach &0 0x55c8887ce020 1 has_backanno: 0
[compiler:info] [torch_rdu] empty_strided ...
[compiler:info] [torch_rdu] empty for size: {3072} ...
[compiler:info] [torch_rdu] Copy from: 0x55c8887fe370 to: 0x55c8887ce020
[compiler:info]   Source: 12288 bytes with name  0x55c8887fe470
[compiler:info]   Dest: 12288 bytes with name  0x0
[compiler:info] RDU shallow_copy_and_detach &&0 0x55c8887ce020 1 has_backanno: 0
[compiler:info] RDU shallow_copy_and_detach &0 0x55c888721160 1 has_backanno: 0
[compiler:info] [torch_rdu] empty_strided ...
[compiler:info] [torch_rdu] empty for size: {768, 3072} ...
[compiler:info] [torch_rdu] Copy from: 0x55c8887fea30 to: 0x55c8887ce020
[compiler:info]   Source: 9437184 bytes with name  0x55c8887feb30
[compiler:info]   Dest: 9437184 bytes with name  0x0
[compiler:info] RDU shallow_copy_and_detach &&0 0x55c8887ce020 1 has_backanno: 0
[compiler:info] RDU shallow_copy_and_detach &0 0x55c888721160 1 has_backanno: 0
[compiler:info] [torch_rdu] empty_strided ...
[compiler:info] [torch_rdu] empty for size: {768} ...
[compiler:info] [torch_rdu] Copy from: 0x55c8887fec50 to: 0x55c888721160
[compiler:info]   Source: 3072 bytes with name  0x55c8887fed20
[compiler:info]   Dest: 3072 bytes with name  0x0
[compiler:info] RDU shallow_copy_and_detach &&0 0x55c888721160 1 has_backanno: 0
[compiler:info] RDU shallow_copy_and_detach &0 0x55c8887ce020 1 has_backanno: 0
[compiler:info] [torch_rdu] empty_strided ...
[compiler:info] [torch_rdu] empty for size: {768} ...
[compiler:info] [torch_rdu] Copy from: 0x55c8887fede0 to: 0x55c888721160
[compiler:info]   Source: 3072 bytes with name  0x55c8887feeb0
[compiler:info]   Dest: 3072 bytes with name  0x0
[compiler:info] RDU shallow_copy_and_detach &&0 0x55c888721160 1 has_backanno: 0
[compiler:info] RDU shallow_copy_and_detach &0 0x55c8887ce020 1 has_backanno: 0
[compiler:info] [torch_rdu] empty_strided ...
[compiler:info] [torch_rdu] empty for size: {768} ...
[compiler:info] [torch_rdu] Copy from: 0x55c8887ee640 to: 0x55c8887ce020
[compiler:info]   Source: 3072 bytes with name  0x55c8887ee710
[compiler:info]   Dest: 3072 bytes with name  0x0
[compiler:info] RDU shallow_copy_and_detach &&0 0x55c8887ce020 1 has_backanno: 0
[compiler:info] RDU shallow_copy_and_detach &0 0x55c888721160 1 has_backanno: 0
[compiler:info] [torch_rdu] empty_strided ...
[compiler:info] [torch_rdu] empty for size: {768, 768} ...
[compiler:info] [torch_rdu] Copy from: 0x55c8887eec70 to: 0x55c8887ce020
[compiler:info]   Source: 2359296 bytes with name  0x55c8888086e0
[compiler:info]   Dest: 2359296 bytes with name  0x0
[compiler:info] RDU shallow_copy_and_detach &&0 0x55c8887ce020 1 has_backanno: 0
[compiler:info] RDU shallow_copy_and_detach &0 0x55c888721160 1 has_backanno: 0
[compiler:info] [torch_rdu] empty_strided ...
[compiler:info] [torch_rdu] empty for size: {768} ...
[compiler:info] [torch_rdu] Copy from: 0x55c8888094b0 to: 0x55c888721160
[compiler:info]   Source: 3072 bytes with name  0x55c8888095b0
[compiler:info]   Dest: 3072 bytes with name  0x0
[compiler:info] RDU shallow_copy_and_detach &&0 0x55c888721160 1 has_backanno: 0
[compiler:info] RDU shallow_copy_and_detach &0 0x55c8887ce020 1 has_backanno: 0
[compiler:info] [torch_rdu] empty_strided ...
[compiler:info] [torch_rdu] empty for size: {768, 768} ...
[compiler:info] [torch_rdu] Copy from: 0x55c888809920 to: 0x55c888721160
[compiler:info]   Source: 2359296 bytes with name  0x55c888809a20
[compiler:info]   Dest: 2359296 bytes with name  0x0
[compiler:info] RDU shallow_copy_and_detach &&0 0x55c888721160 1 has_backanno: 0
[compiler:info] RDU shallow_copy_and_detach &0 0x55c8887ce020 1 has_backanno: 0
[compiler:info] [torch_rdu] empty_strided ...
[compiler:info] [torch_rdu] empty for size: {768} ...
[compiler:info] [torch_rdu] Copy from: 0x55c888809b40 to: 0x55c8887ce020
[compiler:info]   Source: 3072 bytes with name  0x55c888809c40
[compiler:info]   Dest: 3072 bytes with name  0x0
[compiler:info] RDU shallow_copy_and_detach &&0 0x55c8887ce020 1 has_backanno: 0
[compiler:info] RDU shallow_copy_and_detach &0 0x55c888721160 1 has_backanno: 0
[compiler:info] [torch_rdu] empty_strided ...
[compiler:info] [torch_rdu] empty for size: {768, 768} ...
[compiler:info] [torch_rdu] Copy from: 0x55c888811510 to: 0x55c8887ce020
[compiler:info]   Source: 2359296 bytes with name  0x55c8888115e0
[compiler:info]   Dest: 2359296 bytes with name  0x0
[compiler:info] RDU shallow_copy_and_detach &&0 0x55c8887ce020 1 has_backanno: 0
[compiler:info] RDU shallow_copy_and_detach &0 0x55c888721160 1 has_backanno: 0
[compiler:info] [torch_rdu] empty_strided ...
[compiler:info] [torch_rdu] empty for size: {768} ...
[compiler:info] [torch_rdu] Copy from: 0x55c888812380 to: 0x55c888721160
[compiler:info]   Source: 3072 bytes with name  0x55c888812480
[compiler:info]   Dest: 3072 bytes with name  0x0
[compiler:info] RDU shallow_copy_and_detach &&0 0x55c888721160 1 has_backanno: 0
[compiler:info] RDU shallow_copy_and_detach &0 0x55c8887ce020 1 has_backanno: 0
[compiler:info] [torch_rdu] empty_strided ...
[compiler:info] [torch_rdu] empty for size: {768, 768} ...
[compiler:info] [torch_rdu] Copy from: 0x55c888812c90 to: 0x55c888721160
[compiler:info]   Source: 2359296 bytes with name  0x55c888812d90
[compiler:info]   Dest: 2359296 bytes with name  0x0
[compiler:info] RDU shallow_copy_and_detach &&0 0x55c888721160 1 has_backanno: 0
[compiler:info] RDU shallow_copy_and_detach &0 0x55c8887ce020 1 has_backanno: 0
[compiler:info] [torch_rdu] empty_strided ...
[compiler:info] [torch_rdu] empty for size: {768} ...
[compiler:info] [torch_rdu] Copy from: 0x55c888813b30 to: 0x55c8887ce020
[compiler:info]   Source: 3072 bytes with name  0x55c888813c30
[compiler:info]   Dest: 3072 bytes with name  0x0
[compiler:info] RDU shallow_copy_and_detach &&0 0x55c8887ce020 1 has_backanno: 0
[compiler:info] RDU shallow_copy_and_detach &0 0x55c888721160 1 has_backanno: 0
[compiler:info] [torch_rdu] empty_strided ...
[compiler:info] [torch_rdu] empty for size: {768} ...
[compiler:info] [torch_rdu] Copy from: 0x55c888816b60 to: 0x55c8887ce020
[compiler:info]   Source: 3072 bytes with name  0x55c888816c60
[compiler:info]   Dest: 3072 bytes with name  0x0
[compiler:info] RDU shallow_copy_and_detach &&0 0x55c8887ce020 1 has_backanno: 0
[compiler:info] RDU shallow_copy_and_detach &0 0x55c888721160 1 has_backanno: 0
[compiler:info] [torch_rdu] empty_strided ...
[compiler:info] [torch_rdu] empty for size: {768} ...
[compiler:info] [torch_rdu] Copy from: 0x55c888816d80 to: 0x55c888721160
[compiler:info]   Source: 3072 bytes with name  0x55c888816e80
[compiler:info]   Dest: 3072 bytes with name  0x0
[compiler:info] RDU shallow_copy_and_detach &&0 0x55c888721160 1 has_backanno: 0
[compiler:info] RDU shallow_copy_and_detach &0 0x55c8887ce020 1 has_backanno: 0
[compiler:info] [torch_rdu] empty_strided ...
[compiler:info] [torch_rdu] empty for size: {3072, 768} ...
[compiler:info] [torch_rdu] Copy from: 0x55c8888173e0 to: 0x55c888721160
[compiler:info]   Source: 9437184 bytes with name  0x55c8888174e0
[compiler:info]   Dest: 9437184 bytes with name  0x0
[compiler:info] RDU shallow_copy_and_detach &&0 0x55c888721160 1 has_backanno: 0
[compiler:info] RDU shallow_copy_and_detach &0 0x55c8887ce020 1 has_backanno: 0
[compiler:info] [torch_rdu] empty_strided ...
[compiler:info] [torch_rdu] empty for size: {3072} ...
[compiler:info] [torch_rdu] Copy from: 0x55c88880fe70 to: 0x55c8887ce020
[compiler:info]   Source: 12288 bytes with name  0x55c88880ff70
[compiler:info]   Dest: 12288 bytes with name  0x0
[compiler:info] RDU shallow_copy_and_detach &&0 0x55c8887ce020 1 has_backanno: 0
[compiler:info] RDU shallow_copy_and_detach &0 0x55c888721160 1 has_backanno: 0
[compiler:info] [torch_rdu] empty_strided ...
[compiler:info] [torch_rdu] empty for size: {768, 3072} ...
[compiler:info] [torch_rdu] Copy from: 0x55c888810530 to: 0x55c8887ce020
[compiler:info]   Source: 9437184 bytes with name  0x55c888810630
[compiler:info]   Dest: 9437184 bytes with name  0x0
[compiler:info] RDU shallow_copy_and_detach &&0 0x55c8887ce020 1 has_backanno: 0
[compiler:info] RDU shallow_copy_and_detach &0 0x55c888721160 1 has_backanno: 0
[compiler:info] [torch_rdu] empty_strided ...
[compiler:info] [torch_rdu] empty for size: {768} ...
[compiler:info] [torch_rdu] Copy from: 0x55c888810750 to: 0x55c888721160
[compiler:info]   Source: 3072 bytes with name  0x55c8993c7ef0
[compiler:info]   Dest: 3072 bytes with name  0x0
[compiler:info] RDU shallow_copy_and_detach &&0 0x55c888721160 1 has_backanno: 0
[compiler:info] RDU shallow_copy_and_detach &0 0x55c8887ce020 1 has_backanno: 0
[compiler:info] [torch_rdu] empty_strided ...
[compiler:info] [torch_rdu] empty for size: {768} ...
[compiler:info] [torch_rdu] Copy from: 0x55c8993c8e80 to: 0x55c888721160
[compiler:info]   Source: 3072 bytes with name  0x55c8993c8f50
[compiler:info]   Dest: 3072 bytes with name  0x0
[compiler:info] RDU shallow_copy_and_detach &&0 0x55c888721160 1 has_backanno: 0
[compiler:info] RDU shallow_copy_and_detach &0 0x55c8887ce020 1 has_backanno: 0
[compiler:info] [torch_rdu] empty_strided ...
[compiler:info] [torch_rdu] empty for size: {768} ...
[compiler:info] [torch_rdu] Copy from: 0x55c8993c9c90 to: 0x55c8887ce020
[compiler:info]   Source: 3072 bytes with name  0x55c8993c9d60
[compiler:info]   Dest: 3072 bytes with name  0x0
[compiler:info] RDU shallow_copy_and_detach &&0 0x55c8887ce020 1 has_backanno: 0
[compiler:info] RDU shallow_copy_and_detach &0 0x55c888721160 1 has_backanno: 0
[compiler:info] [torch_rdu] empty_strided ...
[compiler:info] [torch_rdu] empty for size: {768, 768} ...
[compiler:info] [torch_rdu] Copy from: 0x55c888813f40 to: 0x55c8887ce020
[compiler:info]   Source: 2359296 bytes with name  0x55c888814040
[compiler:info]   Dest: 2359296 bytes with name  0x0
[compiler:info] RDU shallow_copy_and_detach &&0 0x55c8887ce020 1 has_backanno: 0
[compiler:info] RDU shallow_copy_and_detach &0 0x55c888721160 1 has_backanno: 0
[compiler:info] [torch_rdu] empty_strided ...
[compiler:info] [torch_rdu] empty for size: {768} ...
[compiler:info] [torch_rdu] Copy from: 0x55c888814de0 to: 0x55c888721160
[compiler:info]   Source: 3072 bytes with name  0x55c888814ee0
[compiler:info]   Dest: 3072 bytes with name  0x0
[compiler:info] RDU shallow_copy_and_detach &&0 0x55c888721160 1 has_backanno: 0
[compiler:info] RDU shallow_copy_and_detach &0 0x55c8887ce020 1 has_backanno: 0
[compiler:info] [torch_rdu] empty_strided ...
[compiler:info] [torch_rdu] empty for size: {768, 768} ...
[compiler:info] [torch_rdu] Copy from: 0x55c888815250 to: 0x55c888721160
[compiler:info]   Source: 2359296 bytes with name  0x55c888815320
[compiler:info]   Dest: 2359296 bytes with name  0x0
[compiler:info] RDU shallow_copy_and_detach &&0 0x55c888721160 1 has_backanno: 0
[compiler:info] RDU shallow_copy_and_detach &0 0x55c8887ce020 1 has_backanno: 0
[compiler:info] [torch_rdu] empty_strided ...
[compiler:info] [torch_rdu] empty for size: {768} ...
[compiler:info] [torch_rdu] Copy from: 0x55c888815440 to: 0x55c8887ce020
[compiler:info]   Source: 3072 bytes with name  0x55c888815510
[compiler:info]   Dest: 3072 bytes with name  0x0
[compiler:info] RDU shallow_copy_and_detach &&0 0x55c8887ce020 1 has_backanno: 0
[compiler:info] RDU shallow_copy_and_detach &0 0x55c888721160 1 has_backanno: 0
[compiler:info] [torch_rdu] empty_strided ...
[compiler:info] [torch_rdu] empty for size: {768, 768} ...
[compiler:info] [torch_rdu] Copy from: 0x55c888815880 to: 0x55c8887ce020
[compiler:info]   Source: 2359296 bytes with name  0x55c888815950
[compiler:info]   Dest: 2359296 bytes with name  0x0
[compiler:info] RDU shallow_copy_and_detach &&0 0x55c8887ce020 1 has_backanno: 0
[compiler:info] RDU shallow_copy_and_detach &0 0x55c888721160 1 has_backanno: 0
[compiler:info] [torch_rdu] empty_strided ...
[compiler:info] [torch_rdu] empty for size: {768} ...
[compiler:info] [torch_rdu] Copy from: 0x55c888815a70 to: 0x55c888721160
[compiler:info]   Source: 3072 bytes with name  0x55c888815b40
[compiler:info]   Dest: 3072 bytes with name  0x0
[compiler:info] RDU shallow_copy_and_detach &&0 0x55c888721160 1 has_backanno: 0
[compiler:info] RDU shallow_copy_and_detach &0 0x55c8887ce020 1 has_backanno: 0
[compiler:info] [torch_rdu] empty_strided ...
[compiler:info] [torch_rdu] empty for size: {768, 768} ...
[compiler:info] [torch_rdu] Copy from: 0x55c899cce9b0 to: 0x55c888721160
[compiler:info]   Source: 2359296 bytes with name  0x55c899ccea80
[compiler:info]   Dest: 2359296 bytes with name  0x0
[compiler:info] RDU shallow_copy_and_detach &&0 0x55c888721160 1 has_backanno: 0
[compiler:info] RDU shallow_copy_and_detach &0 0x55c8887ce020 1 has_backanno: 0
[compiler:info] [torch_rdu] empty_strided ...
[compiler:info] [torch_rdu] empty for size: {768} ...
[compiler:info] [torch_rdu] Copy from: 0x55c899ccf7c0 to: 0x55c8887ce020
[compiler:info]   Source: 3072 bytes with name  0x55c899ccf890
[compiler:info]   Dest: 3072 bytes with name  0x0
[compiler:info] RDU shallow_copy_and_detach &&0 0x55c8887ce020 1 has_backanno: 0
[compiler:info] RDU shallow_copy_and_detach &0 0x55c888721160 1 has_backanno: 0
[compiler:info] [torch_rdu] empty_strided ...
[compiler:info] [torch_rdu] empty for size: {768} ...
[compiler:info] [torch_rdu] Copy from: 0x55c899cd0820 to: 0x55c8887ce020
[compiler:info]   Source: 3072 bytes with name  0x55c899cd08f0
[compiler:info]   Dest: 3072 bytes with name  0x0
[compiler:info] RDU shallow_copy_and_detach &&0 0x55c8887ce020 1 has_backanno: 0
[compiler:info] RDU shallow_copy_and_detach &0 0x55c888721160 1 has_backanno: 0
[compiler:info] [torch_rdu] empty_strided ...
[compiler:info] [torch_rdu] empty for size: {768} ...
[compiler:info] [torch_rdu] Copy from: 0x55c899cd1630 to: 0x55c888721160
[compiler:info]   Source: 3072 bytes with name  0x55c899cd1700
[compiler:info]   Dest: 3072 bytes with name  0x0
[compiler:info] RDU shallow_copy_and_detach &&0 0x55c888721160 1 has_backanno: 0
[compiler:info] RDU shallow_copy_and_detach &0 0x55c8887ce020 1 has_backanno: 0
[compiler:info] [torch_rdu] empty_strided ...
[compiler:info] [torch_rdu] empty for size: {3072, 768} ...
[compiler:info] [torch_rdu] Copy from: 0x55c8993caa40 to: 0x55c888721160
[compiler:info]   Source: 9437184 bytes with name  0x55c8993cab40
[compiler:info]   Dest: 9437184 bytes with name  0x0
[compiler:info] RDU shallow_copy_and_detach &&0 0x55c888721160 1 has_backanno: 0
[compiler:info] RDU shallow_copy_and_detach &0 0x55c8887ce020 1 has_backanno: 0
[compiler:info] [torch_rdu] empty_strided ...
[compiler:info] [torch_rdu] empty for size: {3072} ...
[compiler:info] [torch_rdu] Copy from: 0x55c8993cac60 to: 0x55c8887ce020
[compiler:info]   Source: 12288 bytes with name  0x55c8993cad60
[compiler:info]   Dest: 12288 bytes with name  0x0
[compiler:info] RDU shallow_copy_and_detach &&0 0x55c8887ce020 1 has_backanno: 0
[compiler:info] RDU shallow_copy_and_detach &0 0x55c888721160 1 has_backanno: 0
[compiler:info] [torch_rdu] empty_strided ...
[compiler:info] [torch_rdu] empty for size: {768, 3072} ...
[compiler:info] [torch_rdu] Copy from: 0x55c8993cb320 to: 0x55c8887ce020
[compiler:info]   Source: 9437184 bytes with name  0x55c8993cb420
[compiler:info]   Dest: 9437184 bytes with name  0x0
[compiler:info] RDU shallow_copy_and_detach &&0 0x55c8887ce020 1 has_backanno: 0
[compiler:info] RDU shallow_copy_and_detach &0 0x55c888721160 1 has_backanno: 0
[compiler:info] [torch_rdu] empty_strided ...
[compiler:info] [torch_rdu] empty for size: {768} ...
[compiler:info] [torch_rdu] Copy from: 0x55c8993cc1c0 to: 0x55c888721160
[compiler:info]   Source: 3072 bytes with name  0x55c8993cc2c0
[compiler:info]   Dest: 3072 bytes with name  0x0
[compiler:info] RDU shallow_copy_and_detach &&0 0x55c888721160 1 has_backanno: 0
[compiler:info] RDU shallow_copy_and_detach &0 0x55c8887ce020 1 has_backanno: 0
[compiler:info] [torch_rdu] empty_strided ...
[compiler:info] [torch_rdu] empty for size: {768} ...
[compiler:info] [torch_rdu] Copy from: 0x55c8993cc630 to: 0x55c888721160
[compiler:info]   Source: 3072 bytes with name  0x55c8993cc700
[compiler:info]   Dest: 3072 bytes with name  0x0
[compiler:info] RDU shallow_copy_and_detach &&0 0x55c888721160 1 has_backanno: 0
[compiler:info] RDU shallow_copy_and_detach &0 0x55c8887ce020 1 has_backanno: 0
[compiler:info] [torch_rdu] empty_strided ...
[compiler:info] [torch_rdu] empty for size: {768} ...
[compiler:info] [torch_rdu] Copy from: 0x55c8993cc820 to: 0x55c8887ce020
[compiler:info]   Source: 3072 bytes with name  0x55c8993cc8f0
[compiler:info]   Dest: 3072 bytes with name  0x0
[compiler:info] RDU shallow_copy_and_detach &&0 0x55c8887ce020 1 has_backanno: 0
[compiler:info] RDU shallow_copy_and_detach &0 0x55c888721160 1 has_backanno: 0
[compiler:info] [torch_rdu] empty_strided ...
[compiler:info] [torch_rdu] empty for size: {768, 768} ...
[compiler:info] [torch_rdu] Copy from: 0x55c8993cc9b0 to: 0x55c8887ce020
[compiler:info]   Source: 2359296 bytes with name  0x55c8993cca80
[compiler:info]   Dest: 2359296 bytes with name  0x0
[compiler:info] RDU shallow_copy_and_detach &&0 0x55c8887ce020 1 has_backanno: 0
[compiler:info] RDU shallow_copy_and_detach &0 0x55c888721160 1 has_backanno: 0
[compiler:info] [torch_rdu] empty_strided ...
[compiler:info] [torch_rdu] empty for size: {768} ...
[compiler:info] [torch_rdu] Copy from: 0x55c899f1a610 to: 0x55c888721160
[compiler:info]   Source: 3072 bytes with name  0x55c899f1a6e0
[compiler:info]   Dest: 3072 bytes with name  0x0
[compiler:info] RDU shallow_copy_and_detach &&0 0x55c888721160 1 has_backanno: 0
[compiler:info] RDU shallow_copy_and_detach &0 0x55c8887ce020 1 has_backanno: 0
[compiler:info] [torch_rdu] empty_strided ...
[compiler:info] [torch_rdu] empty for size: {768, 768} ...
[compiler:info] [torch_rdu] Copy from: 0x55c89a15aa70 to: 0x55c888721160
[compiler:info]   Source: 2359296 bytes with name  0x55c89a15ab40
[compiler:info]   Dest: 2359296 bytes with name  0x0
[compiler:info] RDU shallow_copy_and_detach &&0 0x55c888721160 1 has_backanno: 0
[compiler:info] RDU shallow_copy_and_detach &0 0x55c8887ce020 1 has_backanno: 0
[compiler:info] [torch_rdu] empty_strided ...
[compiler:info] [torch_rdu] empty for size: {768} ...
[compiler:info] [torch_rdu] Copy from: 0x55c89a15b880 to: 0x55c8887ce020
[compiler:info]   Source: 3072 bytes with name  0x55c89a15b950
[compiler:info]   Dest: 3072 bytes with name  0x0
[compiler:info] RDU shallow_copy_and_detach &&0 0x55c8887ce020 1 has_backanno: 0
[compiler:info] RDU shallow_copy_and_detach &0 0x55c888721160 1 has_backanno: 0
[compiler:info] [torch_rdu] empty_strided ...
[compiler:info] [torch_rdu] empty for size: {768, 768} ...
[compiler:info] [torch_rdu] Copy from: 0x55c89a39bce0 to: 0x55c8887ce020
[compiler:info]   Source: 2359296 bytes with name  0x55c89a39bdb0
[compiler:info]   Dest: 2359296 bytes with name  0x0
[compiler:info] RDU shallow_copy_and_detach &&0 0x55c8887ce020 1 has_backanno: 0
[compiler:info] RDU shallow_copy_and_detach &0 0x55c888721160 1 has_backanno: 0
[compiler:info] [torch_rdu] empty_strided ...
[compiler:info] [torch_rdu] empty for size: {768} ...
[compiler:info] [torch_rdu] Copy from: 0x55c89a39caf0 to: 0x55c888721160
[compiler:info]   Source: 3072 bytes with name  0x55c89a39cbc0
[compiler:info]   Dest: 3072 bytes with name  0x0
[compiler:info] RDU shallow_copy_and_detach &&0 0x55c888721160 1 has_backanno: 0
[compiler:info] RDU shallow_copy_and_detach &0 0x55c8887ce020 1 has_backanno: 0
[compiler:info] [torch_rdu] empty_strided ...
[compiler:info] [torch_rdu] empty for size: {768, 768} ...
[compiler:info] [torch_rdu] Copy from: 0x55c899cd2630 to: 0x55c888721160
[compiler:info]   Source: 2359296 bytes with name  0x55c899cd2730
[compiler:info]   Dest: 2359296 bytes with name  0x0
[compiler:info] RDU shallow_copy_and_detach &&0 0x55c888721160 1 has_backanno: 0
[compiler:info] RDU shallow_copy_and_detach &0 0x55c8887ce020 1 has_backanno: 0
[compiler:info] [torch_rdu] empty_strided ...
[compiler:info] [torch_rdu] empty for size: {768} ...
[compiler:info] [torch_rdu] Copy from: 0x55c899cd34d0 to: 0x55c8887ce020
[compiler:info]   Source: 3072 bytes with name  0x55c899cd35a0
[compiler:info]   Dest: 3072 bytes with name  0x0
[compiler:info] RDU shallow_copy_and_detach &&0 0x55c8887ce020 1 has_backanno: 0
[compiler:info] RDU shallow_copy_and_detach &0 0x55c888721160 1 has_backanno: 0
[compiler:info] [torch_rdu] empty_strided ...
[compiler:info] [torch_rdu] empty for size: {768} ...
[compiler:info] [torch_rdu] Copy from: 0x55c899cd4590 to: 0x55c8887ce020
[compiler:info]   Source: 3072 bytes with name  0x55c899cd4660
[compiler:info]   Dest: 3072 bytes with name  0x0
[compiler:info] RDU shallow_copy_and_detach &&0 0x55c8887ce020 1 has_backanno: 0
[compiler:info] RDU shallow_copy_and_detach &0 0x55c888721160 1 has_backanno: 0
[compiler:info] [torch_rdu] empty_strided ...
[compiler:info] [torch_rdu] empty for size: {768} ...
[compiler:info] [torch_rdu] Copy from: 0x55c89a5e0730 to: 0x55c888721160
[compiler:info]   Source: 3072 bytes with name  0x55c89a5e0800
[compiler:info]   Dest: 3072 bytes with name  0x0
[compiler:info] RDU shallow_copy_and_detach &&0 0x55c888721160 1 has_backanno: 0
[compiler:info] RDU shallow_copy_and_detach &0 0x55c8887ce020 1 has_backanno: 0
[compiler:info] [torch_rdu] empty_strided ...
[compiler:info] [torch_rdu] empty for size: {3072, 768} ...
[compiler:info] [torch_rdu] Copy from: 0x55c888800080 to: 0x55c888721160
[compiler:info]   Source: 9437184 bytes with name  0x55c888800180
[compiler:info]   Dest: 9437184 bytes with name  0x0
[compiler:info] RDU shallow_copy_and_detach &&0 0x55c888721160 1 has_backanno: 0
[compiler:info] RDU shallow_copy_and_detach &0 0x55c8887ce020 1 has_backanno: 0
[compiler:info] [torch_rdu] empty_strided ...
[compiler:info] [torch_rdu] empty for size: {3072} ...
[compiler:info] [torch_rdu] Copy from: 0x55c888803320 to: 0x55c8887ce020
[compiler:info]   Source: 12288 bytes with name  0x55c888803420
[compiler:info]   Dest: 12288 bytes with name  0x0
[compiler:info] RDU shallow_copy_and_detach &&0 0x55c8887ce020 1 has_backanno: 0
[compiler:info] RDU shallow_copy_and_detach &0 0x55c888721160 1 has_backanno: 0
[compiler:info] [torch_rdu] empty_strided ...
[compiler:info] [torch_rdu] empty for size: {768, 3072} ...
[compiler:info] [torch_rdu] Copy from: 0x55c8888039e0 to: 0x55c8887ce020
[compiler:info]   Source: 9437184 bytes with name  0x55c888803ae0
[compiler:info]   Dest: 9437184 bytes with name  0x0
[compiler:info] RDU shallow_copy_and_detach &&0 0x55c8887ce020 1 has_backanno: 0
[compiler:info] RDU shallow_copy_and_detach &0 0x55c888721160 1 has_backanno: 0
[compiler:info] [torch_rdu] empty_strided ...
[compiler:info] [torch_rdu] empty for size: {768} ...
[compiler:info] [torch_rdu] Copy from: 0x55c888804880 to: 0x55c888721160
[compiler:info]   Source: 3072 bytes with name  0x55c888804980
[compiler:info]   Dest: 3072 bytes with name  0x0
[compiler:info] RDU shallow_copy_and_detach &&0 0x55c888721160 1 has_backanno: 0
[compiler:info] RDU shallow_copy_and_detach &0 0x55c8887ce020 1 has_backanno: 0
[compiler:info] [torch_rdu] empty_strided ...
[compiler:info] [torch_rdu] empty for size: {768} ...
[compiler:info] [torch_rdu] Copy from: 0x55c888805970 to: 0x55c888721160
[compiler:info]   Source: 3072 bytes with name  0x55c888805a70
[compiler:info]   Dest: 3072 bytes with name  0x0
[compiler:info] RDU shallow_copy_and_detach &&0 0x55c888721160 1 has_backanno: 0
[compiler:info] RDU shallow_copy_and_detach &0 0x55c8887ce020 1 has_backanno: 0
[compiler:info] [torch_rdu] empty_strided ...
[compiler:info] [torch_rdu] empty for size: {768} ...
[compiler:info] [torch_rdu] Copy from: 0x55c888806810 to: 0x55c8887ce020
[compiler:info]   Source: 3072 bytes with name  0x55c8888068e0
[compiler:info]   Dest: 3072 bytes with name  0x0
[compiler:info] RDU shallow_copy_and_detach &&0 0x55c8887ce020 1 has_backanno: 0
[compiler:info] RDU shallow_copy_and_detach &0 0x55c888721160 1 has_backanno: 0
[compiler:info] [torch_rdu] empty_strided ...
[compiler:info] [torch_rdu] empty for size: {768, 768} ...
[compiler:info] [torch_rdu] Copy from: 0x55c8888072e0 to: 0x55c8887ce020
[compiler:info]   Source: 2359296 bytes with name  0x55c8888073e0
[compiler:info]   Dest: 2359296 bytes with name  0x0
[compiler:info] RDU shallow_copy_and_detach &&0 0x55c8887ce020 1 has_backanno: 0
[compiler:info] RDU shallow_copy_and_detach &0 0x55c888721160 1 has_backanno: 0
[compiler:info] [torch_rdu] empty_strided ...
[compiler:info] [torch_rdu] empty for size: {768} ...
[compiler:info] [torch_rdu] Copy from: 0x55c888808180 to: 0x55c888721160
[compiler:info]   Source: 3072 bytes with name  0x55c888808280
[compiler:info]   Dest: 3072 bytes with name  0x0
[compiler:info] RDU shallow_copy_and_detach &&0 0x55c888721160 1 has_backanno: 0
[compiler:info] RDU shallow_copy_and_detach &0 0x55c8887ce020 1 has_backanno: 0
[compiler:info] [torch_rdu] empty_strided ...
[compiler:info] [torch_rdu] empty for size: {768, 768} ...
[compiler:info] [torch_rdu] Copy from: 0x55c8888085f0 to: 0x55c888721160
[compiler:info]   Source: 2359296 bytes with name  0x55c89a39cc80
[compiler:info]   Dest: 2359296 bytes with name  0x0
[compiler:info] RDU shallow_copy_and_detach &&0 0x55c888721160 1 has_backanno: 0
[compiler:info] RDU shallow_copy_and_detach &0 0x55c8887ce020 1 has_backanno: 0
[compiler:info] [torch_rdu] empty_strided ...
[compiler:info] [torch_rdu] empty for size: {768} ...
[compiler:info] [torch_rdu] Copy from: 0x55c89a39da20 to: 0x55c8887ce020
[compiler:info]   Source: 3072 bytes with name  0x55c89a39db20
[compiler:info]   Dest: 3072 bytes with name  0x0
[compiler:info] RDU shallow_copy_and_detach &&0 0x55c8887ce020 1 has_backanno: 0
[compiler:info] RDU shallow_copy_and_detach &0 0x55c888721160 1 has_backanno: 0
[compiler:info] [torch_rdu] empty_strided ...
[compiler:info] [torch_rdu] empty for size: {768, 768} ...
[compiler:info] [torch_rdu] Copy from: 0x55c89a39de90 to: 0x55c8887ce020
[compiler:info]   Source: 2359296 bytes with name  0x55c89a39df60
[compiler:info]   Dest: 2359296 bytes with name  0x0
[compiler:info] RDU shallow_copy_and_detach &&0 0x55c8887ce020 1 has_backanno: 0
[compiler:info] RDU shallow_copy_and_detach &0 0x55c888721160 1 has_backanno: 0
[compiler:info] [torch_rdu] empty_strided ...
[compiler:info] [torch_rdu] empty for size: {768} ...
[compiler:info] [torch_rdu] Copy from: 0x55c89a39ed00 to: 0x55c888721160
[compiler:info]   Source: 3072 bytes with name  0x55c89a39ee00
[compiler:info]   Dest: 3072 bytes with name  0x0
[compiler:info] RDU shallow_copy_and_detach &&0 0x55c888721160 1 has_backanno: 0
[compiler:info] RDU shallow_copy_and_detach &0 0x55c8887ce020 1 has_backanno: 0
[compiler:info] [torch_rdu] empty_strided ...
[compiler:info] [torch_rdu] empty for size: {768, 768} ...
[compiler:info] [torch_rdu] Copy from: 0x55c89a39f610 to: 0x55c888721160
[compiler:info]   Source: 2359296 bytes with name  0x55c89a39f6e0
[compiler:info]   Dest: 2359296 bytes with name  0x0
[compiler:info] RDU shallow_copy_and_detach &&0 0x55c888721160 1 has_backanno: 0
[compiler:info] RDU shallow_copy_and_detach &0 0x55c8887ce020 1 has_backanno: 0
[compiler:info] [torch_rdu] empty_strided ...
[compiler:info] [torch_rdu] empty for size: {768} ...
[compiler:info] [torch_rdu] Copy from: 0x55c89a39f800 to: 0x55c8887ce020
[compiler:info]   Source: 3072 bytes with name  0x55c89a39f8d0
[compiler:info]   Dest: 3072 bytes with name  0x0
[compiler:info] RDU shallow_copy_and_detach &&0 0x55c8887ce020 1 has_backanno: 0
[compiler:info] RDU shallow_copy_and_detach &0 0x55c888721160 1 has_backanno: 0
[compiler:info] [torch_rdu] empty_strided ...
[compiler:info] [torch_rdu] empty for size: {768} ...
[compiler:info] [torch_rdu] Copy from: 0x55c89a39f990 to: 0x55c8887ce020
[compiler:info]   Source: 3072 bytes with name  0x55c89aef78a0
[compiler:info]   Dest: 3072 bytes with name  0x0
[compiler:info] RDU shallow_copy_and_detach &&0 0x55c8887ce020 1 has_backanno: 0
[compiler:info] RDU shallow_copy_and_detach &0 0x55c888721160 1 has_backanno: 0
[compiler:info] [torch_rdu] empty_strided ...
[compiler:info] [torch_rdu] empty for size: {768} ...
[compiler:info] [torch_rdu] Copy from: 0x55c89aef85e0 to: 0x55c888721160
[compiler:info]   Source: 3072 bytes with name  0x55c89aef86b0
[compiler:info]   Dest: 3072 bytes with name  0x0
[compiler:info] RDU shallow_copy_and_detach &&0 0x55c888721160 1 has_backanno: 0
[compiler:info] RDU shallow_copy_and_detach &0 0x55c8887ce020 1 has_backanno: 0
[compiler:info] [torch_rdu] empty_strided ...
[compiler:info] [torch_rdu] empty for size: {3072, 768} ...
[compiler:info] [torch_rdu] Copy from: 0x55c89aef90b0 to: 0x55c888721160
[compiler:info]   Source: 9437184 bytes with name  0x55c89aef9180
[compiler:info]   Dest: 9437184 bytes with name  0x0
[compiler:info] RDU shallow_copy_and_detach &&0 0x55c888721160 1 has_backanno: 0
[compiler:info] RDU shallow_copy_and_detach &0 0x55c8887ce020 1 has_backanno: 0
[compiler:info] [torch_rdu] empty_strided ...
[compiler:info] [torch_rdu] empty for size: {3072} ...
[compiler:info] [torch_rdu] Copy from: 0x55c89aefc2c0 to: 0x55c8887ce020
[compiler:info]   Source: 12288 bytes with name  0x55c89aefc390
[compiler:info]   Dest: 12288 bytes with name  0x0
[compiler:info] RDU shallow_copy_and_detach &&0 0x55c8887ce020 1 has_backanno: 0
[compiler:info] RDU shallow_copy_and_detach &0 0x55c888721160 1 has_backanno: 0
[compiler:info] [torch_rdu] empty_strided ...
[compiler:info] [torch_rdu] empty for size: {768, 3072} ...
[compiler:info] [torch_rdu] Copy from: 0x55c89aefc8f0 to: 0x55c8887ce020
[compiler:info]   Source: 9437184 bytes with name  0x55c89aefc9c0
[compiler:info]   Dest: 9437184 bytes with name  0x0
[compiler:info] RDU shallow_copy_and_detach &&0 0x55c8887ce020 1 has_backanno: 0
[compiler:info] RDU shallow_copy_and_detach &0 0x55c888721160 1 has_backanno: 0
[compiler:info] [torch_rdu] empty_strided ...
[compiler:info] [torch_rdu] empty for size: {768} ...
[compiler:info] [torch_rdu] Copy from: 0x55c89aefd700 to: 0x55c888721160
[compiler:info]   Source: 3072 bytes with name  0x55c89aefd7d0
[compiler:info]   Dest: 3072 bytes with name  0x0
[compiler:info] RDU shallow_copy_and_detach &&0 0x55c888721160 1 has_backanno: 0
[compiler:info] RDU shallow_copy_and_detach &0 0x55c8887ce020 1 has_backanno: 0
[compiler:info] [torch_rdu] empty_strided ...
[compiler:info] [torch_rdu] empty for size: {768} ...
[compiler:info] [torch_rdu] Copy from: 0x55c89aefe7c0 to: 0x55c888721160
[compiler:info]   Source: 3072 bytes with name  0x55c89aefe890
[compiler:info]   Dest: 3072 bytes with name  0x0
[compiler:info] RDU shallow_copy_and_detach &&0 0x55c888721160 1 has_backanno: 0
[compiler:info] RDU shallow_copy_and_detach &0 0x55c8887ce020 1 has_backanno: 0
[compiler:info] [torch_rdu] empty_strided ...
[compiler:info] [torch_rdu] empty for size: {768} ...
[compiler:info] [torch_rdu] Copy from: 0x55c89aeff5d0 to: 0x55c8887ce020
[compiler:info]   Source: 3072 bytes with name  0x55c89aeff6a0
[compiler:info]   Dest: 3072 bytes with name  0x0
[compiler:info] RDU shallow_copy_and_detach &&0 0x55c8887ce020 1 has_backanno: 0
[compiler:info] RDU shallow_copy_and_detach &0 0x55c888721160 1 has_backanno: 0
[compiler:info] [torch_rdu] empty_strided ...
[compiler:info] [torch_rdu] empty for size: {768, 768} ...
[compiler:info] [torch_rdu] Copy from: 0x55c89a5f3280 to: 0x55c8887ce020
[compiler:info]   Source: 2359296 bytes with name  0x55c89a5f3380
[compiler:info]   Dest: 2359296 bytes with name  0x0
[compiler:info] RDU shallow_copy_and_detach &&0 0x55c8887ce020 1 has_backanno: 0
[compiler:info] RDU shallow_copy_and_detach &0 0x55c888721160 1 has_backanno: 0
[compiler:info] [torch_rdu] empty_strided ...
[compiler:info] [torch_rdu] empty for size: {768} ...
[compiler:info] [torch_rdu] Copy from: 0x55c89a5f4120 to: 0x55c888721160
[compiler:info]   Source: 3072 bytes with name  0x55c89a5f4220
[compiler:info]   Dest: 3072 bytes with name  0x0
[compiler:info] RDU shallow_copy_and_detach &&0 0x55c888721160 1 has_backanno: 0
[compiler:info] RDU shallow_copy_and_detach &0 0x55c8887ce020 1 has_backanno: 0
[compiler:info] [torch_rdu] empty_strided ...
[compiler:info] [torch_rdu] empty for size: {768, 768} ...
[compiler:info] [torch_rdu] Copy from: 0x55c89a5f4590 to: 0x55c888721160
[compiler:info]   Source: 2359296 bytes with name  0x55c89a5f4660
[compiler:info]   Dest: 2359296 bytes with name  0x0
[compiler:info] RDU shallow_copy_and_detach &&0 0x55c888721160 1 has_backanno: 0
[compiler:info] RDU shallow_copy_and_detach &0 0x55c8887ce020 1 has_backanno: 0
[compiler:info] [torch_rdu] empty_strided ...
[compiler:info] [torch_rdu] empty for size: {768} ...
[compiler:info] [torch_rdu] Copy from: 0x55c89a5f5400 to: 0x55c8887ce020
[compiler:info]   Source: 3072 bytes with name  0x55c89a5f5500
[compiler:info]   Dest: 3072 bytes with name  0x0
[compiler:info] RDU shallow_copy_and_detach &&0 0x55c8887ce020 1 has_backanno: 0
[compiler:info] RDU shallow_copy_and_detach &0 0x55c888721160 1 has_backanno: 0
[compiler:info] [torch_rdu] empty_strided ...
[compiler:info] [torch_rdu] empty for size: {768, 768} ...
[compiler:info] [torch_rdu] Copy from: 0x55c89a5f5870 to: 0x55c8887ce020
[compiler:info]   Source: 2359296 bytes with name  0x55c89a5f5940
[compiler:info]   Dest: 2359296 bytes with name  0x0
[compiler:info] RDU shallow_copy_and_detach &&0 0x55c8887ce020 1 has_backanno: 0
[compiler:info] RDU shallow_copy_and_detach &0 0x55c888721160 1 has_backanno: 0
[compiler:info] [torch_rdu] empty_strided ...
[compiler:info] [torch_rdu] empty for size: {768} ...
[compiler:info] [torch_rdu] Copy from: 0x55c89a5f5a60 to: 0x55c888721160
[compiler:info]   Source: 3072 bytes with name  0x55c89a5f5b30
[compiler:info]   Dest: 3072 bytes with name  0x0
[compiler:info] RDU shallow_copy_and_detach &&0 0x55c888721160 1 has_backanno: 0
[compiler:info] RDU shallow_copy_and_detach &0 0x55c8887ce020 1 has_backanno: 0
[compiler:info] [torch_rdu] empty_strided ...
[compiler:info] [torch_rdu] empty for size: {768, 768} ...
[compiler:info] [torch_rdu] Copy from: 0x55c89b804640 to: 0x55c888721160
[compiler:info]   Source: 2359296 bytes with name  0x55c89b804710
[compiler:info]   Dest: 2359296 bytes with name  0x0
[compiler:info] RDU shallow_copy_and_detach &&0 0x55c888721160 1 has_backanno: 0
[compiler:info] RDU shallow_copy_and_detach &0 0x55c8887ce020 1 has_backanno: 0
[compiler:info] [torch_rdu] empty_strided ...
[compiler:info] [torch_rdu] empty for size: {768} ...
[compiler:info] [torch_rdu] Copy from: 0x55c89b805450 to: 0x55c8887ce020
[compiler:info]   Source: 3072 bytes with name  0x55c89b805520
[compiler:info]   Dest: 3072 bytes with name  0x0
[compiler:info] RDU shallow_copy_and_detach &&0 0x55c8887ce020 1 has_backanno: 0
[compiler:info] RDU shallow_copy_and_detach &0 0x55c888721160 1 has_backanno: 0
[compiler:info] [torch_rdu] empty_strided ...
[compiler:info] [torch_rdu] empty for size: {768} ...
[compiler:info] [torch_rdu] Copy from: 0x55c89b8064b0 to: 0x55c8887ce020
[compiler:info]   Source: 3072 bytes with name  0x55c89b806580
[compiler:info]   Dest: 3072 bytes with name  0x0
[compiler:info] RDU shallow_copy_and_detach &&0 0x55c8887ce020 1 has_backanno: 0
[compiler:info] RDU shallow_copy_and_detach &0 0x55c888721160 1 has_backanno: 0
[compiler:info] [torch_rdu] empty_strided ...
[compiler:info] [torch_rdu] empty for size: {768} ...
[compiler:info] [torch_rdu] Copy from: 0x55c89b8072c0 to: 0x55c888721160
[compiler:info]   Source: 3072 bytes with name  0x55c89b807390
[compiler:info]   Dest: 3072 bytes with name  0x0
[compiler:info] RDU shallow_copy_and_detach &&0 0x55c888721160 1 has_backanno: 0
[compiler:info] RDU shallow_copy_and_detach &0 0x55c8887ce020 1 has_backanno: 0
[compiler:info] [torch_rdu] empty_strided ...
[compiler:info] [torch_rdu] empty for size: {3072, 768} ...
[compiler:info] [torch_rdu] Copy from: 0x55c89b807df0 to: 0x55c888721160
[compiler:info]   Source: 9437184 bytes with name  0x55c89b807ec0
[compiler:info]   Dest: 9437184 bytes with name  0x0
[compiler:info] RDU shallow_copy_and_detach &&0 0x55c888721160 1 has_backanno: 0
[compiler:info] RDU shallow_copy_and_detach &0 0x55c8887ce020 1 has_backanno: 0
[compiler:info] [torch_rdu] empty_strided ...
[compiler:info] [torch_rdu] empty for size: {3072} ...
[compiler:info] [torch_rdu] Copy from: 0x55c89b80b000 to: 0x55c8887ce020
[compiler:info]   Source: 12288 bytes with name  0x55c89b80b0d0
[compiler:info]   Dest: 12288 bytes with name  0x0
[compiler:info] RDU shallow_copy_and_detach &&0 0x55c8887ce020 1 has_backanno: 0
[compiler:info] RDU shallow_copy_and_detach &0 0x55c888721160 1 has_backanno: 0
[compiler:info] [torch_rdu] empty_strided ...
[compiler:info] [torch_rdu] empty for size: {768, 3072} ...
[compiler:info] [torch_rdu] Copy from: 0x55c89b80b690 to: 0x55c8887ce020
[compiler:info]   Source: 9437184 bytes with name  0x55c89b80b760
[compiler:info]   Dest: 9437184 bytes with name  0x0
[compiler:info] RDU shallow_copy_and_detach &&0 0x55c8887ce020 1 has_backanno: 0
[compiler:info] RDU shallow_copy_and_detach &0 0x55c888721160 1 has_backanno: 0
[compiler:info] [torch_rdu] empty_strided ...
[compiler:info] [torch_rdu] empty for size: {768} ...
[compiler:info] [torch_rdu] Copy from: 0x55c89b80c4a0 to: 0x55c888721160
[compiler:info]   Source: 3072 bytes with name  0x55c89b80c570
[compiler:info]   Dest: 3072 bytes with name  0x0
[compiler:info] RDU shallow_copy_and_detach &&0 0x55c888721160 1 has_backanno: 0
[compiler:info] RDU shallow_copy_and_detach &0 0x55c8887ce020 1 has_backanno: 0
[compiler:info] [torch_rdu] empty_strided ...
[compiler:info] [torch_rdu] empty for size: {768} ...
[compiler:info] [torch_rdu] Copy from: 0x55c89af00470 to: 0x55c888721160
[compiler:info]   Source: 3072 bytes with name  0x55c89af00570
[compiler:info]   Dest: 3072 bytes with name  0x0
[compiler:info] RDU shallow_copy_and_detach &&0 0x55c888721160 1 has_backanno: 0
[compiler:info] RDU shallow_copy_and_detach &0 0x55c8887ce020 1 has_backanno: 0
[compiler:info] [torch_rdu] empty_strided ...
[compiler:info] [torch_rdu] empty for size: {768} ...
[compiler:info] [torch_rdu] Copy from: 0x55c89af01310 to: 0x55c8887ce020
[compiler:info]   Source: 3072 bytes with name  0x55c89af013e0
[compiler:info]   Dest: 3072 bytes with name  0x0
[compiler:info] RDU shallow_copy_and_detach &&0 0x55c8887ce020 1 has_backanno: 0
[compiler:info] RDU shallow_copy_and_detach &0 0x55c888721160 1 has_backanno: 0
[compiler:info] [torch_rdu] empty_strided ...
[compiler:info] [torch_rdu] empty for size: {768, 768} ...
[compiler:info] [torch_rdu] Copy from: 0x55c89af01e40 to: 0x55c8887ce020
[compiler:info]   Source: 2359296 bytes with name  0x55c89af01f40
[compiler:info]   Dest: 2359296 bytes with name  0x0
[compiler:info] RDU shallow_copy_and_detach &&0 0x55c8887ce020 1 has_backanno: 0
[compiler:info] RDU shallow_copy_and_detach &0 0x55c888721160 1 has_backanno: 0
[compiler:info] [torch_rdu] empty_strided ...
[compiler:info] [torch_rdu] empty for size: {768} ...
[compiler:info] [torch_rdu] Copy from: 0x55c89af02ce0 to: 0x55c888721160
[compiler:info]   Source: 3072 bytes with name  0x55c89af02de0
[compiler:info]   Dest: 3072 bytes with name  0x0
[compiler:info] RDU shallow_copy_and_detach &&0 0x55c888721160 1 has_backanno: 0
[compiler:info] RDU shallow_copy_and_detach &0 0x55c8887ce020 1 has_backanno: 0
[compiler:info] [torch_rdu] empty_strided ...
[compiler:info] [torch_rdu] empty for size: {768, 768} ...
[compiler:info] [torch_rdu] Copy from: 0x55c89bc90ad0 to: 0x55c888721160
[compiler:info]   Source: 2359296 bytes with name  0x55c89bc90ba0
[compiler:info]   Dest: 2359296 bytes with name  0x0
[compiler:info] RDU shallow_copy_and_detach &&0 0x55c888721160 1 has_backanno: 0
[compiler:info] RDU shallow_copy_and_detach &0 0x55c8887ce020 1 has_backanno: 0
[compiler:info] [torch_rdu] empty_strided ...
[compiler:info] [torch_rdu] empty for size: {768} ...
[compiler:info] [torch_rdu] Copy from: 0x55c89bc918e0 to: 0x55c8887ce020
[compiler:info]   Source: 3072 bytes with name  0x55c89bc919b0
[compiler:info]   Dest: 3072 bytes with name  0x0
[compiler:info] RDU shallow_copy_and_detach &&0 0x55c8887ce020 1 has_backanno: 0
[compiler:info] RDU shallow_copy_and_detach &0 0x55c888721160 1 has_backanno: 0
[compiler:info] [torch_rdu] empty_strided ...
[compiler:info] [torch_rdu] empty for size: {768, 768} ...
[compiler:info] [torch_rdu] Copy from: 0x55c89bed1da0 to: 0x55c8887ce020
[compiler:info]   Source: 2359296 bytes with name  0x55c89bed1e70
[compiler:info]   Dest: 2359296 bytes with name  0x0
[compiler:info] RDU shallow_copy_and_detach &&0 0x55c8887ce020 1 has_backanno: 0
[compiler:info] RDU shallow_copy_and_detach &0 0x55c888721160 1 has_backanno: 0
[compiler:info] [torch_rdu] empty_strided ...
[compiler:info] [torch_rdu] empty for size: {768} ...
[compiler:info] [torch_rdu] Copy from: 0x55c89bed2c10 to: 0x55c888721160
[compiler:info]   Source: 3072 bytes with name  0x55c89bed2ce0
[compiler:info]   Dest: 3072 bytes with name  0x0
[compiler:info] RDU shallow_copy_and_detach &&0 0x55c888721160 1 has_backanno: 0
[compiler:info] RDU shallow_copy_and_detach &0 0x55c8887ce020 1 has_backanno: 0
[compiler:info] [torch_rdu] empty_strided ...
[compiler:info] [torch_rdu] empty for size: {768, 768} ...
[compiler:info] [torch_rdu] Copy from: 0x55c89c113570 to: 0x55c888721160
[compiler:info]   Source: 2359296 bytes with name  0x55c89c113640
[compiler:info]   Dest: 2359296 bytes with name  0x0
[compiler:info] RDU shallow_copy_and_detach &&0 0x55c888721160 1 has_backanno: 0
[compiler:info] RDU shallow_copy_and_detach &0 0x55c8887ce020 1 has_backanno: 0
[compiler:info] [torch_rdu] empty_strided ...
[compiler:info] [torch_rdu] empty for size: {768} ...
[compiler:info] [torch_rdu] Copy from: 0x55c89c1143e0 to: 0x55c8887ce020
[compiler:info]   Source: 3072 bytes with name  0x55c89c1144b0
[compiler:info]   Dest: 3072 bytes with name  0x0
[compiler:info] RDU shallow_copy_and_detach &&0 0x55c8887ce020 1 has_backanno: 0
[compiler:info] RDU shallow_copy_and_detach &0 0x55c888721160 1 has_backanno: 0
[compiler:info] [torch_rdu] empty_strided ...
[compiler:info] [torch_rdu] empty for size: {768} ...
[compiler:info] [torch_rdu] Copy from: 0x55c89c1154a0 to: 0x55c8887ce020
[compiler:info]   Source: 3072 bytes with name  0x55c89c115570
[compiler:info]   Dest: 3072 bytes with name  0x0
[compiler:info] RDU shallow_copy_and_detach &&0 0x55c8887ce020 1 has_backanno: 0
[compiler:info] RDU shallow_copy_and_detach &0 0x55c888721160 1 has_backanno: 0
[compiler:info] [torch_rdu] empty_strided ...
[compiler:info] [torch_rdu] empty for size: {768} ...
[compiler:info] [torch_rdu] Copy from: 0x55c89c116310 to: 0x55c888721160
[compiler:info]   Source: 3072 bytes with name  0x55c89c1163e0
[compiler:info]   Dest: 3072 bytes with name  0x0
[compiler:info] RDU shallow_copy_and_detach &&0 0x55c888721160 1 has_backanno: 0
[compiler:info] RDU shallow_copy_and_detach &0 0x55c8887ce020 1 has_backanno: 0
[compiler:info] [torch_rdu] empty_strided ...
[compiler:info] [torch_rdu] empty for size: {3072, 768} ...
[compiler:info] [torch_rdu] Copy from: 0x55c89c116e40 to: 0x55c888721160
[compiler:info]   Source: 9437184 bytes with name  0x55c89c116f10
[compiler:info]   Dest: 9437184 bytes with name  0x0
[compiler:info] RDU shallow_copy_and_detach &&0 0x55c888721160 1 has_backanno: 0
[compiler:info] RDU shallow_copy_and_detach &0 0x55c8887ce020 1 has_backanno: 0
[compiler:info] [torch_rdu] empty_strided ...
[compiler:info] [torch_rdu] empty for size: {3072} ...
[compiler:info] [torch_rdu] Copy from: 0x55c89c11a0b0 to: 0x55c8887ce020
[compiler:info]   Source: 12288 bytes with name  0x55c89c11a180
[compiler:info]   Dest: 12288 bytes with name  0x0
[compiler:info] RDU shallow_copy_and_detach &&0 0x55c8887ce020 1 has_backanno: 0
[compiler:info] RDU shallow_copy_and_detach &0 0x55c888721160 1 has_backanno: 0
[compiler:info] [torch_rdu] empty_strided ...
[compiler:info] [torch_rdu] empty for size: {768, 3072} ...
[compiler:info] [torch_rdu] Copy from: 0x55c89c11a740 to: 0x55c8887ce020
[compiler:info]   Source: 9437184 bytes with name  0x55c89c11a810
[compiler:info]   Dest: 9437184 bytes with name  0x0
[compiler:info] RDU shallow_copy_and_detach &&0 0x55c8887ce020 1 has_backanno: 0
[compiler:info] RDU shallow_copy_and_detach &0 0x55c888721160 1 has_backanno: 0
[compiler:info] [torch_rdu] empty_strided ...
[compiler:info] [torch_rdu] empty for size: {768} ...
[compiler:info] [torch_rdu] Copy from: 0x55c89c11b5b0 to: 0x55c888721160
[compiler:info]   Source: 3072 bytes with name  0x55c89c11b680
[compiler:info]   Dest: 3072 bytes with name  0x0
[compiler:info] RDU shallow_copy_and_detach &&0 0x55c888721160 1 has_backanno: 0
[compiler:info] RDU shallow_copy_and_detach &0 0x55c8887ce020 1 has_backanno: 0
[compiler:info] [torch_rdu] empty_strided ...
[compiler:info] [torch_rdu] empty for size: {768} ...
[compiler:info] [torch_rdu] Copy from: 0x55c89c11c670 to: 0x55c888721160
[compiler:info]   Source: 3072 bytes with name  0x55c89c11c740
[compiler:info]   Dest: 3072 bytes with name  0x0
[compiler:info] RDU shallow_copy_and_detach &&0 0x55c888721160 1 has_backanno: 0
[compiler:info] RDU shallow_copy_and_detach &0 0x55c8887ce020 1 has_backanno: 0
[compiler:info] [torch_rdu] empty_strided ...
[compiler:info] [torch_rdu] empty for size: {768} ...
[compiler:info] [torch_rdu] Copy from: 0x55c89c11d4e0 to: 0x55c8887ce020
[compiler:info]   Source: 3072 bytes with name  0x55c89c11d5b0
[compiler:info]   Dest: 3072 bytes with name  0x0
[compiler:info] RDU shallow_copy_and_detach &&0 0x55c8887ce020 1 has_backanno: 0
[compiler:info] RDU shallow_copy_and_detach &0 0x55c888721160 1 has_backanno: 0
[compiler:info] [torch_rdu] empty_strided ...
[compiler:info] [torch_rdu] empty for size: {768, 768} ...
[compiler:info] [torch_rdu] Copy from: 0x55c8887931f0 to: 0x55c8887ce020
[compiler:info]   Source: 2359296 bytes with name  0x55c8887894c0
[compiler:info]   Dest: 2359296 bytes with name  0x0
[compiler:info] RDU shallow_copy_and_detach &&0 0x55c8887ce020 1 has_backanno: 0
[compiler:info] RDU shallow_copy_and_detach &0 0x55c888721160 1 has_backanno: 0
[compiler:info] [torch_rdu] empty_strided ...
[compiler:info] [torch_rdu] empty for size: {768} ...
[compiler:info] [torch_rdu] Copy from: 0x55c88872e100 to: 0x55c888721160
[compiler:info]   Source: 3072 bytes with name  0x55c8887892d0
[compiler:info]   Dest: 3072 bytes with name  0x0
[compiler:info] RDU shallow_copy_and_detach &&0 0x55c888721160 1 has_backanno: 0
[compiler:info] RDU shallow_copy_and_detach &0 0x55c8887ce020 1 has_backanno: 0
[compiler:info] [torch_rdu] empty_strided ...
[compiler:info] [torch_rdu] empty for size: {768, 768} ...
[compiler:info] [torch_rdu] Copy from: 0x55c8887abc80 to: 0x55c888721160
[compiler:info]   Source: 2359296 bytes with name  0x55c888715e20
[compiler:info]   Dest: 2359296 bytes with name  0x0
[compiler:info] RDU shallow_copy_and_detach &&0 0x55c888721160 1 has_backanno: 0
[compiler:info] RDU shallow_copy_and_detach &0 0x55c8887ce020 1 has_backanno: 0
[compiler:info] [torch_rdu] empty_strided ...
[compiler:info] [torch_rdu] empty for size: {768} ...
[compiler:info] [torch_rdu] Copy from: 0x55c88879a850 to: 0x55c8887ce020
[compiler:info]   Source: 3072 bytes with name  0x55c888715d00
[compiler:info]   Dest: 3072 bytes with name  0x0
[compiler:info] RDU shallow_copy_and_detach &&0 0x55c8887ce020 1 has_backanno: 0
[compiler:info] RDU shallow_copy_and_detach &0 0x55c888721160 1 has_backanno: 0
[compiler:info] [torch_rdu] empty_strided ...
[compiler:info] [torch_rdu] empty for size: {768, 768} ...
[compiler:info] [torch_rdu] Copy from: 0x55c88879a5c0 to: 0x55c8887ce020
[compiler:info]   Source: 2359296 bytes with name  0x55c888748940
[compiler:info]   Dest: 2359296 bytes with name  0x0
[compiler:info] RDU shallow_copy_and_detach &&0 0x55c8887ce020 1 has_backanno: 0
[compiler:info] RDU shallow_copy_and_detach &0 0x55c888721160 1 has_backanno: 0
[compiler:info] [torch_rdu] empty_strided ...
[compiler:info] [torch_rdu] empty for size: {768} ...
[compiler:info] [torch_rdu] Copy from: 0x55c888789200 to: 0x55c888721160
[compiler:info]   Source: 3072 bytes with name  0x55c888748880
[compiler:info]   Dest: 3072 bytes with name  0x0
[compiler:info] RDU shallow_copy_and_detach &&0 0x55c888721160 1 has_backanno: 0
[compiler:info] RDU shallow_copy_and_detach &0 0x55c8887ce020 1 has_backanno: 0
[compiler:info] [torch_rdu] empty_strided ...
[compiler:info] [torch_rdu] empty for size: {768, 768} ...
[compiler:info] [torch_rdu] Copy from: 0x55c8887893f0 to: 0x55c888721160
[compiler:info]   Source: 2359296 bytes with name  0x55c88872e1d0
[compiler:info]   Dest: 2359296 bytes with name  0x0
[compiler:info] RDU shallow_copy_and_detach &&0 0x55c888721160 1 has_backanno: 0
[compiler:info] RDU shallow_copy_and_detach &0 0x55c8887ce020 1 has_backanno: 0
[compiler:info] [torch_rdu] empty_strided ...
[compiler:info] [torch_rdu] empty for size: {768} ...
[compiler:info] [torch_rdu] Copy from: 0x55c8887984c0 to: 0x55c8887ce020
[compiler:info]   Source: 3072 bytes with name  0x55c888752d60
[compiler:info]   Dest: 3072 bytes with name  0x0
[compiler:info] RDU shallow_copy_and_detach &&0 0x55c8887ce020 1 has_backanno: 0
[compiler:info] RDU shallow_copy_and_detach &0 0x55c888721160 1 has_backanno: 0
[compiler:info] [torch_rdu] empty_strided ...
[compiler:info] [torch_rdu] empty for size: {768} ...
[compiler:info] [torch_rdu] Copy from: 0x55c888715aa0 to: 0x55c8887ce020
[compiler:info]   Source: 3072 bytes with name  0x55c8887895e0
[compiler:info]   Dest: 3072 bytes with name  0x0
[compiler:info] RDU shallow_copy_and_detach &&0 0x55c8887ce020 1 has_backanno: 0
[compiler:info] RDU shallow_copy_and_detach &0 0x55c888721160 1 has_backanno: 0
[compiler:info] [torch_rdu] empty_strided ...
[compiler:info] [torch_rdu] empty for size: {768} ...
[compiler:info] [torch_rdu] Copy from: 0x55c8887896a0 to: 0x55c888721160
[compiler:info]   Source: 3072 bytes with name  0x55c888734390
[compiler:info]   Dest: 3072 bytes with name  0x0
[compiler:info] RDU shallow_copy_and_detach &&0 0x55c888721160 1 has_backanno: 0
[compiler:info] RDU shallow_copy_and_detach &0 0x55c8887ce020 1 has_backanno: 0
[compiler:info] [torch_rdu] empty_strided ...
[compiler:info] [torch_rdu] empty for size: {3072, 768} ...
[compiler:info] [torch_rdu] Copy from: 0x55c888734450 to: 0x55c888721160
[compiler:info]   Source: 9437184 bytes with name  0x55c8887980a0
[compiler:info]   Dest: 9437184 bytes with name  0x0
[compiler:info] RDU shallow_copy_and_detach &&0 0x55c888721160 1 has_backanno: 0
[compiler:info] RDU shallow_copy_and_detach &0 0x55c8887ce020 1 has_backanno: 0
[compiler:info] [torch_rdu] empty_strided ...
[compiler:info] [torch_rdu] empty for size: {3072} ...
[compiler:info] [torch_rdu] Copy from: 0x55c888798160 to: 0x55c8887ce020
[compiler:info]   Source: 12288 bytes with name  0x55c88875d040
[compiler:info]   Dest: 12288 bytes with name  0x0
[compiler:info] RDU shallow_copy_and_detach &&0 0x55c8887ce020 1 has_backanno: 0
[compiler:info] RDU shallow_copy_and_detach &0 0x55c888721160 1 has_backanno: 0
[compiler:info] [torch_rdu] empty_strided ...
[compiler:info] [torch_rdu] empty for size: {768, 3072} ...
[compiler:info] [torch_rdu] Copy from: 0x55c88875d100 to: 0x55c8887ce020
[compiler:info]   Source: 9437184 bytes with name  0x55c88892c1f0
[compiler:info]   Dest: 9437184 bytes with name  0x0
[compiler:info] RDU shallow_copy_and_detach &&0 0x55c8887ce020 1 has_backanno: 0
[compiler:info] RDU shallow_copy_and_detach &0 0x55c888721160 1 has_backanno: 0
[compiler:info] [torch_rdu] empty_strided ...
[compiler:info] [torch_rdu] empty for size: {768} ...
[compiler:info] [torch_rdu] Copy from: 0x55c8887b6820 to: 0x55c888721160
[compiler:info]   Source: 3072 bytes with name  0x55c8887b68f0
[compiler:info]   Dest: 3072 bytes with name  0x0
[compiler:info] RDU shallow_copy_and_detach &&0 0x55c888721160 1 has_backanno: 0
[compiler:info] RDU shallow_copy_and_detach &0 0x55c8887ce020 1 has_backanno: 0
[compiler:info] [torch_rdu] empty_strided ...
[compiler:info] [torch_rdu] empty for size: {768} ...
[compiler:info] [torch_rdu] Copy from: 0x55c8887568b0 to: 0x55c888721160
[compiler:info]   Source: 3072 bytes with name  0x55c888756980
[compiler:info]   Dest: 3072 bytes with name  0x0
[compiler:info] RDU shallow_copy_and_detach &&0 0x55c888721160 1 has_backanno: 0
[compiler:info] RDU shallow_copy_and_detach &0 0x55c8887ce020 1 has_backanno: 0
[compiler:info] [torch_rdu] empty_strided ...
[compiler:info] [torch_rdu] empty for size: {768} ...
[compiler:info] [torch_rdu] Copy from: 0x55c888752ee0 to: 0x55c8887ce020
[compiler:info]   Source: 3072 bytes with name  0x55c888752fb0
[compiler:info]   Dest: 3072 bytes with name  0x0
[compiler:info] RDU shallow_copy_and_detach &&0 0x55c8887ce020 1 has_backanno: 0
[compiler:info] RDU shallow_copy_and_detach &0 0x55c888721160 1 has_backanno: 0
[compiler:info] [torch_rdu] empty_strided ...
[compiler:info] [torch_rdu] empty for size: {768, 768} ...
[compiler:info] [torch_rdu] Copy from: 0x55c896e23460 to: 0x55c8887ce020
[compiler:info]   Source: 2359296 bytes with name  0x55c896e23530
[compiler:info]   Dest: 2359296 bytes with name  0x0
[compiler:info] RDU shallow_copy_and_detach &&0 0x55c8887ce020 1 has_backanno: 0
[compiler:info] RDU shallow_copy_and_detach &0 0x55c888721160 1 has_backanno: 0
[compiler:info] [torch_rdu] empty_strided ...
[compiler:info] [torch_rdu] empty for size: {768} ...
[compiler:info] [torch_rdu] Copy from: 0x55c888734910 to: 0x55c888721160
[compiler:info]   Source: 3072 bytes with name  0x55c8887349e0
[compiler:info]   Dest: 3072 bytes with name  0x0
[compiler:info] RDU shallow_copy_and_detach &&0 0x55c888721160 1 has_backanno: 0
[compiler:info] RDU shallow_copy_and_detach &0 0x55c8887ce020 1 has_backanno: 0
[compiler:info] [torch_rdu] empty_strided ...
[compiler:info] [torch_rdu] empty for size: {768, 768} ...
[compiler:info] [torch_rdu] Copy from: 0x55c8887b5ef0 to: 0x55c888721160
[compiler:info]   Source: 2359296 bytes with name  0x55c8887b5fc0
[compiler:info]   Dest: 2359296 bytes with name  0x0
[compiler:info] RDU shallow_copy_and_detach &&0 0x55c888721160 1 has_backanno: 0
[compiler:info] RDU shallow_copy_and_detach &0 0x55c8887ce020 1 has_backanno: 0
[compiler:info] [torch_rdu] empty_strided ...
[compiler:info] [torch_rdu] empty for size: {768} ...
[compiler:info] [torch_rdu] Copy from: 0x55c88871c870 to: 0x55c8887ce020
[compiler:info]   Source: 3072 bytes with name  0x55c88871c940
[compiler:info]   Dest: 3072 bytes with name  0x0
[compiler:info] RDU shallow_copy_and_detach &&0 0x55c8887ce020 1 has_backanno: 0
[compiler:info] RDU shallow_copy_and_detach &0 0x55c888721160 1 has_backanno: 0
[compiler:info] [torch_rdu] empty_strided ...
[compiler:info] [torch_rdu] empty for size: {768, 768} ...
[compiler:info] [torch_rdu] Copy from: 0x55c888718450 to: 0x55c8887ce020
[compiler:info]   Source: 2359296 bytes with name  0x55c888718520
[compiler:info]   Dest: 2359296 bytes with name  0x0
[compiler:info] RDU shallow_copy_and_detach &&0 0x55c8887ce020 1 has_backanno: 0
[compiler:info] RDU shallow_copy_and_detach &0 0x55c888721160 1 has_backanno: 0
[compiler:info] [torch_rdu] empty_strided ...
[compiler:info] [torch_rdu] empty for size: {768} ...
[compiler:info] [torch_rdu] Copy from: 0x55c888718640 to: 0x55c888721160
[compiler:info]   Source: 3072 bytes with name  0x55c888718710
[compiler:info]   Dest: 3072 bytes with name  0x0
[compiler:info] RDU shallow_copy_and_detach &&0 0x55c888721160 1 has_backanno: 0
[compiler:info] RDU shallow_copy_and_detach &0 0x55c8887ce020 1 has_backanno: 0
[compiler:info] [torch_rdu] empty_strided ...
[compiler:info] [torch_rdu] empty for size: {768, 768} ...
[compiler:info] [torch_rdu] Copy from: 0x55c8887187d0 to: 0x55c888721160
[compiler:info]   Source: 2359296 bytes with name  0x55c88870c810
[compiler:info]   Dest: 2359296 bytes with name  0x0
[compiler:info] RDU shallow_copy_and_detach &&0 0x55c888721160 1 has_backanno: 0
[compiler:info] RDU shallow_copy_and_detach &0 0x55c8887ce020 1 has_backanno: 0
[compiler:info] [torch_rdu] empty_strided ...
[compiler:info] [torch_rdu] empty for size: {768} ...
[compiler:info] [torch_rdu] Copy from: 0x55c88870c930 to: 0x55c8887ce020
[compiler:info]   Source: 3072 bytes with name  0x55c88870ca00
[compiler:info]   Dest: 3072 bytes with name  0x0
[compiler:info] RDU shallow_copy_and_detach &&0 0x55c8887ce020 1 has_backanno: 0
[compiler:info] RDU shallow_copy_and_detach &0 0x55c888721160 1 has_backanno: 0
[compiler:info] [torch_rdu] empty_strided ...
[compiler:info] [torch_rdu] empty for size: {768} ...
[compiler:info] [torch_rdu] Copy from: 0x55c88870cd70 to: 0x55c8887ce020
[compiler:info]   Source: 3072 bytes with name  0x55c88870ce40
[compiler:info]   Dest: 3072 bytes with name  0x0
[compiler:info] RDU shallow_copy_and_detach &&0 0x55c8887ce020 1 has_backanno: 0
[compiler:info] RDU shallow_copy_and_detach &0 0x55c888721160 1 has_backanno: 0
[compiler:info] [torch_rdu] empty_strided ...
[compiler:info] [torch_rdu] empty for size: {768} ...
[compiler:info] [torch_rdu] Copy from: 0x55c888763b90 to: 0x55c888721160
[compiler:info]   Source: 3072 bytes with name  0x55c888763c60
[compiler:info]   Dest: 3072 bytes with name  0x0
[compiler:info] RDU shallow_copy_and_detach &&0 0x55c888721160 1 has_backanno: 0
[compiler:info] RDU shallow_copy_and_detach &0 0x55c8887ce020 1 has_backanno: 0
[compiler:info] [torch_rdu] empty_strided ...
[compiler:info] [torch_rdu] empty for size: {3072, 768} ...
[compiler:info] [torch_rdu] Copy from: 0x55c8887641c0 to: 0x55c888721160
[compiler:info]   Source: 9437184 bytes with name  0x55c8887bf890
[compiler:info]   Dest: 9437184 bytes with name  0x0
[compiler:info] RDU shallow_copy_and_detach &&0 0x55c888721160 1 has_backanno: 0
[compiler:info] RDU shallow_copy_and_detach &0 0x55c8887ce020 1 has_backanno: 0
[compiler:info] [torch_rdu] empty_strided ...
[compiler:info] [torch_rdu] empty for size: {3072} ...
[compiler:info] [torch_rdu] Copy from: 0x55c8887bf950 to: 0x55c8887ce020
[compiler:info]   Source: 12288 bytes with name  0x55c8887bfa20
[compiler:info]   Dest: 12288 bytes with name  0x0
[compiler:info] RDU shallow_copy_and_detach &&0 0x55c8887ce020 1 has_backanno: 0
[compiler:info] RDU shallow_copy_and_detach &0 0x55c888721160 1 has_backanno: 0
[compiler:info] [torch_rdu] empty_strided ...
[compiler:info] [torch_rdu] empty for size: {768, 3072} ...
[compiler:info] [torch_rdu] Copy from: 0x55c888725010 to: 0x55c8887ce020
[compiler:info]   Source: 9437184 bytes with name  0x55c8887250e0
[compiler:info]   Dest: 9437184 bytes with name  0x0
[compiler:info] RDU shallow_copy_and_detach &&0 0x55c8887ce020 1 has_backanno: 0
[compiler:info] RDU shallow_copy_and_detach &0 0x55c888721160 1 has_backanno: 0
[compiler:info] [torch_rdu] empty_strided ...
[compiler:info] [torch_rdu] empty for size: {768} ...
[compiler:info] [torch_rdu] Copy from: 0x55c888725200 to: 0x55c888721160
[compiler:info]   Source: 3072 bytes with name  0x55c8887c9850
[compiler:info]   Dest: 3072 bytes with name  0x0
[compiler:info] RDU shallow_copy_and_detach &&0 0x55c888721160 1 has_backanno: 0
[compiler:info] RDU shallow_copy_and_detach &0 0x55c8887ce020 1 has_backanno: 0
[compiler:info] [torch_rdu] empty_strided ...
[compiler:info] [torch_rdu] empty for size: {768} ...
[compiler:info] [torch_rdu] Copy from: 0x55c8887c9bc0 to: 0x55c888721160
[compiler:info]   Source: 3072 bytes with name  0x55c8887c9c90
[compiler:info]   Dest: 3072 bytes with name  0x0
[compiler:info] RDU shallow_copy_and_detach &&0 0x55c888721160 1 has_backanno: 0
[compiler:info] RDU shallow_copy_and_detach &0 0x55c8887ce020 1 has_backanno: 0
[compiler:info] [torch_rdu] empty_strided ...
[compiler:info] [torch_rdu] empty for size: {768} ...
[compiler:info] [torch_rdu] Copy from: 0x55c8887c9db0 to: 0x55c8887ce020
[compiler:info]   Source: 3072 bytes with name  0x55c8887c9e80
[compiler:info]   Dest: 3072 bytes with name  0x0
[compiler:info] RDU shallow_copy_and_detach &&0 0x55c8887ce020 1 has_backanno: 0
[compiler:info] RDU shallow_copy_and_detach &0 0x55c888721160 1 has_backanno: 0
[compiler:info] [torch_rdu] empty_strided ...
[compiler:info] [torch_rdu] empty for size: {768, 768} ...
[compiler:info] [torch_rdu] Copy from: 0x55c8887c9f40 to: 0x55c8887ce020
[compiler:info]   Source: 2359296 bytes with name  0x55c88874ec30
[compiler:info]   Dest: 2359296 bytes with name  0x0
[compiler:info] RDU shallow_copy_and_detach &&0 0x55c8887ce020 1 has_backanno: 0
[compiler:info] RDU shallow_copy_and_detach &0 0x55c888721160 1 has_backanno: 0
[compiler:info] [torch_rdu] empty_strided ...
[compiler:info] [torch_rdu] empty for size: {768} ...
[compiler:info] [torch_rdu] Copy from: 0x55c88888e120 to: 0x55c888721160
[compiler:info]   Source: 3072 bytes with name  0x55c88888e1f0
[compiler:info]   Dest: 3072 bytes with name  0x0
[compiler:info] RDU shallow_copy_and_detach &&0 0x55c888721160 1 has_backanno: 0
[compiler:info] RDU shallow_copy_and_detach &0 0x55c8887ce020 1 has_backanno: 0
[compiler:info] [torch_rdu] empty_strided ...
[compiler:info] [torch_rdu] empty for size: {768, 768} ...
[compiler:info] [torch_rdu] Copy from: 0x55c888733b10 to: 0x55c888721160
[compiler:info]   Source: 2359296 bytes with name  0x55c888733be0
[compiler:info]   Dest: 2359296 bytes with name  0x0
[compiler:info] RDU shallow_copy_and_detach &&0 0x55c888721160 1 has_backanno: 0
[compiler:info] RDU shallow_copy_and_detach &0 0x55c8887ce020 1 has_backanno: 0
[compiler:info] [torch_rdu] empty_strided ...
[compiler:info] [torch_rdu] empty for size: {768} ...
[compiler:info] [torch_rdu] Copy from: 0x55c888733d00 to: 0x55c8887ce020
[compiler:info]   Source: 3072 bytes with name  0x55c888733dd0
[compiler:info]   Dest: 3072 bytes with name  0x0
[compiler:info] RDU shallow_copy_and_detach &&0 0x55c8887ce020 1 has_backanno: 0
[compiler:info] RDU shallow_copy_and_detach &0 0x55c888721160 1 has_backanno: 0
[compiler:info] [torch_rdu] empty_strided ...
[compiler:info] [torch_rdu] empty for size: {768, 768} ...
[compiler:info] [torch_rdu] Copy from: 0x55c888734140 to: 0x55c8887ce020
[compiler:info]   Source: 2359296 bytes with name  0x55c888734210
[compiler:info]   Dest: 2359296 bytes with name  0x0
[compiler:info] RDU shallow_copy_and_detach &&0 0x55c8887ce020 1 has_backanno: 0
[compiler:info] RDU shallow_copy_and_detach &0 0x55c888721160 1 has_backanno: 0
[compiler:info] [torch_rdu] empty_strided ...
[compiler:info] [torch_rdu] empty for size: {768} ...
[compiler:info] [torch_rdu] Copy from: 0x55c8887aca90 to: 0x55c888721160
[compiler:info]   Source: 3072 bytes with name  0x55c8887acb60
[compiler:info]   Dest: 3072 bytes with name  0x0
[compiler:info] RDU shallow_copy_and_detach &&0 0x55c888721160 1 has_backanno: 0
[compiler:info] RDU shallow_copy_and_detach &0 0x55c8887ce020 1 has_backanno: 0
[compiler:info] [torch_rdu] empty_strided ...
[compiler:info] [torch_rdu] empty for size: {768, 768} ...
[compiler:info] [torch_rdu] Copy from: 0x55c8887ad0b0 to: 0x55c888721160
[compiler:info]   Source: 2359296 bytes with name  0x55c8887ad180
[compiler:info]   Dest: 2359296 bytes with name  0x0
[compiler:info] RDU shallow_copy_and_detach &&0 0x55c888721160 1 has_backanno: 0
[compiler:info] RDU shallow_copy_and_detach &0 0x55c8887ce020 1 has_backanno: 0
[compiler:info] [torch_rdu] empty_strided ...
[compiler:info] [torch_rdu] empty for size: {768} ...
[compiler:info] [torch_rdu] Copy from: 0x55c8887a1070 to: 0x55c8887ce020
[compiler:info]   Source: 3072 bytes with name  0x55c8887a1140
[compiler:info]   Dest: 3072 bytes with name  0x0
[compiler:info] RDU shallow_copy_and_detach &&0 0x55c8887ce020 1 has_backanno: 0
[compiler:info] RDU shallow_copy_and_detach &0 0x55c888721160 1 has_backanno: 0
[compiler:info] [torch_rdu] empty_strided ...
[compiler:info] [torch_rdu] empty for size: {768} ...
[compiler:info] [torch_rdu] Copy from: 0x55c8887a1200 to: 0x55c8887ce020
[compiler:info]   Source: 3072 bytes with name  0x55c8887a12d0
[compiler:info]   Dest: 3072 bytes with name  0x0
[compiler:info] RDU shallow_copy_and_detach &&0 0x55c8887ce020 1 has_backanno: 0
[compiler:info] RDU shallow_copy_and_detach &0 0x55c888721160 1 has_backanno: 0
[compiler:info] [torch_rdu] empty_strided ...
[compiler:info] [torch_rdu] empty for size: {768} ...
[compiler:info] [torch_rdu] Copy from: 0x55c88870e760 to: 0x55c888721160
[compiler:info]   Source: 3072 bytes with name  0x55c88870e830
[compiler:info]   Dest: 3072 bytes with name  0x0
[compiler:info] RDU shallow_copy_and_detach &&0 0x55c888721160 1 has_backanno: 0
[compiler:info] RDU shallow_copy_and_detach &0 0x55c8887ce020 1 has_backanno: 0
[compiler:info] [torch_rdu] empty_strided ...
[compiler:info] [torch_rdu] empty for size: {3072, 768} ...
[compiler:info] [torch_rdu] Copy from: 0x55c88879fb20 to: 0x55c888721160
[compiler:info]   Source: 9437184 bytes with name  0x55c88870eb40
[compiler:info]   Dest: 9437184 bytes with name  0x0
[compiler:info] RDU shallow_copy_and_detach &&0 0x55c888721160 1 has_backanno: 0
[compiler:info] RDU shallow_copy_and_detach &0 0x55c8887ce020 1 has_backanno: 0
[compiler:info] [torch_rdu] empty_strided ...
[compiler:info] [torch_rdu] empty for size: {3072} ...
[compiler:info] [torch_rdu] Copy from: 0x55c88870ec00 to: 0x55c8887ce020
[compiler:info]   Source: 12288 bytes with name  0x55c888779eb0
[compiler:info]   Dest: 12288 bytes with name  0x0
[compiler:info] RDU shallow_copy_and_detach &&0 0x55c8887ce020 1 has_backanno: 0
[compiler:info] RDU shallow_copy_and_detach &0 0x55c888721160 1 has_backanno: 0
[compiler:info] [torch_rdu] empty_strided ...
[compiler:info] [torch_rdu] empty for size: {768, 3072} ...
[compiler:info] [torch_rdu] Copy from: 0x55c88877a410 to: 0x55c8887ce020
[compiler:info]   Source: 9437184 bytes with name  0x55c88877a4e0
[compiler:info]   Dest: 9437184 bytes with name  0x0
[compiler:info] RDU shallow_copy_and_detach &&0 0x55c8887ce020 1 has_backanno: 0
[compiler:info] RDU shallow_copy_and_detach &0 0x55c888721160 1 has_backanno: 0
[compiler:info] [torch_rdu] empty_strided ...
[compiler:info] [torch_rdu] empty for size: {768} ...
[compiler:info] [torch_rdu] Copy from: 0x55c88877a600 to: 0x55c888721160
[compiler:info]   Source: 3072 bytes with name  0x55c888723150
[compiler:info]   Dest: 3072 bytes with name  0x0
[compiler:info] RDU shallow_copy_and_detach &&0 0x55c888721160 1 has_backanno: 0
[compiler:info] RDU shallow_copy_and_detach &0 0x55c8887ce020 1 has_backanno: 0
[compiler:info] [torch_rdu] empty_strided ...
[compiler:info] [torch_rdu] empty for size: {768} ...
[compiler:info] [torch_rdu] Copy from: 0x55c8887234c0 to: 0x55c888721160
[compiler:info]   Source: 3072 bytes with name  0x55c8888755d0
[compiler:info]   Dest: 3072 bytes with name  0x0
[compiler:info] RDU shallow_copy_and_detach &&0 0x55c888721160 1 has_backanno: 0
[compiler:info] RDU shallow_copy_and_detach &0 0x55c8887ce020 1 has_backanno: 0
[compiler:info] [torch_rdu] empty_strided ...
[compiler:info] [torch_rdu] empty for size: {768} ...
[compiler:info] [torch_rdu] Copy from: 0x55c8887235f0 to: 0x55c8887ce020
[compiler:info]   Source: 3072 bytes with name  0x55c8887236c0
[compiler:info]   Dest: 3072 bytes with name  0x0
[compiler:info] RDU shallow_copy_and_detach &&0 0x55c8887ce020 1 has_backanno: 0
[compiler:info] RDU shallow_copy_and_detach &0 0x55c888721160 1 has_backanno: 0
[compiler:info] [torch_rdu] empty_strided ...
[compiler:info] [torch_rdu] empty for size: {768, 768} ...
[compiler:info] [torch_rdu] Copy from: 0x55c8887a6740 to: 0x55c8887ce020
[compiler:info]   Source: 2359296 bytes with name  0x55c8887a6810
[compiler:info]   Dest: 2359296 bytes with name  0x0
[compiler:info] RDU shallow_copy_and_detach &&0 0x55c8887ce020 1 has_backanno: 0
[compiler:info] RDU shallow_copy_and_detach &0 0x55c888721160 1 has_backanno: 0
[compiler:info] [torch_rdu] empty_strided ...
[compiler:info] [torch_rdu] empty for size: {768} ...
[compiler:info] [torch_rdu] Copy from: 0x55c888713ea0 to: 0x55c888721160
[compiler:info]   Source: 3072 bytes with name  0x55c8887577b0
[compiler:info]   Dest: 3072 bytes with name  0x0
[compiler:info] RDU shallow_copy_and_detach &&0 0x55c888721160 1 has_backanno: 0
[compiler:info] RDU shallow_copy_and_detach &0 0x55c8887ce020 1 has_backanno: 0
[compiler:info] [torch_rdu] empty_strided ...
[compiler:info] [torch_rdu] empty for size: {768} ...
[compiler:info] [torch_rdu] Copy from: 0x55c888757b20 to: 0x55c888721160
[compiler:info]   Source: 3072 bytes with name  0x55c888757bf0
[compiler:info]   Dest: 3072 bytes with name  0x0
[compiler:info] RDU shallow_copy_and_detach &&0 0x55c888721160 1 has_backanno: 0
[compiler:info] RDU shallow_copy_and_detach &0 0x55c8887ce020 1 has_backanno: 0
[compiler:info] [torch_rdu] empty_strided ...
[compiler:info] [torch_rdu] empty for size: {768} ...
[compiler:info] [torch_rdu] Copy from: 0x55c888757d10 to: 0x55c8887ce020
[compiler:info]   Source: 3072 bytes with name  0x55c888757de0
[compiler:info]   Dest: 3072 bytes with name  0x0
[compiler:info] RDU shallow_copy_and_detach &&0 0x55c8887ce020 1 has_backanno: 0
[compiler:info] RDU shallow_copy_and_detach &0 0x55c888721160 1 has_backanno: 0
[compiler:info] [torch_rdu] empty_strided ...
[compiler:info] [torch_rdu] empty for size: {30522, 768} ...
[compiler:info] [torch_rdu] Copy from: 0x55c88877c0a0 to: 0x55c8887ce020
[compiler:info]   Source: 93763584 bytes with name  0x55c8887c2900
[compiler:info]   Dest: 93763584 bytes with name  0x0
[compiler:info] RDU shallow_copy_and_detach &&0 0x55c8887ce020 1 has_backanno: 0
[compiler:info] RDU shallow_copy_and_detach &0 0x55c888721160 1 has_backanno: 0
[compiler:info] [torch_rdu] empty_strided ...
[compiler:info] [torch_rdu] empty for size: {30522} ...
[compiler:info] [torch_rdu] Copy from: 0x55c888795580 to: 0x55c888721160
[compiler:info]   Source: 122088 bytes with name  0x55c888795650
[compiler:info]   Dest: 122088 bytes with name  0x0
[compiler:info] RDU shallow_copy_and_detach &&0 0x55c888721160 1 has_backanno: 0
[compiler:info] RDU shallow_copy_and_detach &0 0x55c8887ce020 1 has_backanno: 0
[compiler:info] [torch_rdu] empty_strided ...
[compiler:info] [torch_rdu] empty for size: {30522} ...
[compiler:info] [torch_rdu] Copy from: 0x55c888795580 to: 0x55c888721160
[compiler:info]   Source: 122088 bytes with name  0x55c888795650
[compiler:info]   Dest: 122088 bytes with name  0x0
[compiler:info] RDU shallow_copy_and_detach &&0 0x55c888721160 1 has_backanno: 0
[compiler:info] RDU shallow_copy_and_detach &0 0x55c8887ce020 1 has_backanno: 0
[compiler:info] [torch_rdu] slice...
[compiler:info] [torch_rdu] empty_strided ...
[compiler:info] [torch_rdu] empty for size: {1, 1} ...
[compiler:info] [torch_rdu] Copy from: 0x55c8948c1c80 to: 0x55c8887ce020
[compiler:info]   Source: 8 bytes with name  0x0
[compiler:info]   Dest: 4 bytes with name  0x0
[compiler:info] RDU shallow_copy_and_detach &&1 0x55c888728830 1 has_backanno: 0
[compiler:info] set_tensor_view:
[compiler:info]   sizes: {1, 16}
[compiler:info]   strides: {16, 1}
[compiler:info]   offset: 0
[compiler:info] [torch_rdu] unsqueeze ...
[compiler:info] RDU shallow_copy_and_detach &&1 0x55c8948c1e90 1 has_backanno: 0
[compiler:info] [torch_rdu] unsqueeze_ ...
[compiler:info] set_tensor_view:
[compiler:info]   sizes: {1, 1, 16}
[compiler:info]   strides: {16, 16, 1}
[compiler:info]   offset: 0
[compiler:info] [torch_rdu] unsqueeze ...
[compiler:info] RDU shallow_copy_and_detach &&1 0x55c8948c2220 1 has_backanno: 0
[compiler:info] [torch_rdu] unsqueeze_ ...
[compiler:info] set_tensor_view:
[compiler:info]   sizes: {1, 1, 1, 16}
[compiler:info]   strides: {16, 16, 16, 1}
[compiler:info]   offset: 0
[compiler:info] [torch_rdu] slice...
[compiler:info] [torch_rdu] empty_strided ...
[compiler:info] [torch_rdu] empty for size: {1, 1} ...
[compiler:info] [torch_rdu] Copy from: 0x55c8948c1c80 to: 0x55c8948c2220
[compiler:info]   Source: 8 bytes with name  0x0
[compiler:info]   Dest: 4 bytes with name  0x0
[compiler:info] RDU shallow_copy_and_detach &&1 0x55c8948c1e90 1 has_backanno: 0
[compiler:info] set_tensor_view:
[compiler:info]   sizes: {1, 1, 1, 16}
[compiler:info]   strides: {16, 16, 16, 1}
[compiler:info]   offset: 0
[compiler:info] [torch_rdu] empty_strided ...
[compiler:info] [torch_rdu] empty for size: {1, 1, 1, 16} ...
[compiler:info] platform name...
[compiler:info] DataScale SN10-8
Log ID initialized to: [surajk][python][237584] at /var/log/sambaflow/runtime/sn.log
[JITPerf] JIT::construct 8775762 ns
[JITPerf] &JIT::construct 8784343 ns
[compiler:info] [torch_rdu] Copy from: 0x55c8948c2c80 to: 0x55c8948c1e90
[compiler:info]   Source: 128 bytes with name  0x55c8948c26e0
[compiler:info]   Dest: 64 bytes with name  0x0
[compiler:info] [torch_rdu] sub ... 
[compiler:info] [torch_rdu] empty_strided ...
[compiler:info] [torch_rdu] empty for size: {1, 1, 1, 16} ...
[JITPerf] &JIT::construct 30 ns
[compiler:info] [torch_rdu] Copy from: 0x55c8948c1e90 to: 0x55c8948c2c80
[compiler:info]   Source: 64 bytes with name  0x0
[compiler:info]   Dest: 128 bytes with name  0x0
[JITPerf] &JIT::construct 30 ns
[JITPerf] get_empty() 190 ns
[compiler:info] [torch_rdu] empty for size: {} ...
[JITPerf] get_rdu_tensor_impl() 40 ns
[compiler:info] [torch_rdu] empty_strided ...
[compiler:info] [torch_rdu] empty for size: {1} ...
[compiler:info] [torch_rdu] Copy from: 0x55c894f61970 to: 0x55c8887ce020
[compiler:info]   Source: 8 bytes with name  0x0
[compiler:info]   Dest: 8 bytes with name  0x0
[compiler:info] Creating new IR...
[compiler:info] [torch_rdu] empty_strided ...
[compiler:info] [torch_rdu] empty for size: {1} ...
[compiler:info] [torch_rdu] Copy from: 0x55c8887ce020 to: 0x55c8949a4420
[compiler:info]   Source: 8 bytes with name  0x0
[compiler:info]   Dest: 4 bytes with name  0x0
[compiler:info] [torch_rdu] alias ...
[compiler:info] RDU shallow_copy_and_detach &&1 0x55c8949a4420 1 has_backanno: 0
[compiler:info] [torch_rdu] empty_strided ...
[compiler:info] [torch_rdu] empty for size: {1, 1, 1, 16} ...
[compiler:info] [torch_rdu] Copy from: 0x55c8948c2c80 to: 0x55c8949a4420
[compiler:info]   Source: 128 bytes with name  0x0
[compiler:info]   Dest: 64 bytes with name  0x0
[compiler:info] [torch_rdu] alias ...
[compiler:info] RDU shallow_copy_and_detach &&1 0x55c8949a4420 1 has_backanno: 0
[JITPerf] extract_inputs_helper() 403511 ns
[JITPerf] &JIT::construct 51 ns
[JITPerf] &JIT::construct 31 ns
[JITPerf] &JIT::construct 29 ns
[JITPerf] &JIT::construct 40 ns
[JITPerf] &JIT::construct 30 ns
[JITPerf] &JIT::construct 30 ns
[JITPerf] &JIT::construct 30 ns
[JITPerf] &JIT::construct 20 ns
[JITPerf] get_rdu_tensor_impl() 100 ns
[JITPerf] update_ir() 1470 ns
[compiler:info] module @program attributes {arc.AIRMappingDecisionIsSpatial = false, arc.kAIRAddnOpt = true, arc.kAIRBufferBeforeConcatAddn = false, arc.kAIRBufferNonRedundancy = "", arc.kAIRDPTilingOptimization = false, arc.kAIRDisableConcatStoreOpt = false, arc.kAIRDisableLoadTilerOptWithDimOrdering = false, arc.kAIRDisableOptimizeRereadBuffer = false, arc.kAIREnableSkipBufferExtensionOpt = false, arc.kAIREnableStoreTilerOptWithDimOrdering = false, arc.kAIRForceDRAMFirstThenP2P = false, arc.kAIRMappingDecisionGlobalNumBatches = 1 : i64, arc.kAIRMetaPipeWithOneIterationRemoval = false, arc.kAIRTransposeMatMulTransformation = false, arc.kAppName = "jit_out", arc.kArchMajor = 1 : i64, arc.kArchMinor = 0 : i64, arc.kBoxLayoutSize = 2 : i64, arc.kBoxLayoutType = 0 : i64, arc.kConcisePrinting = false, arc.kDataParallelBf16StochasticRounding = false, arc.kDataParallelBf16StochasticRoundingHighStaticBatchSize = false, arc.kDataParallelBf16StochasticRoundingSeedName = "", arc.kEliminateBufferTimeout = 100 : i64, arc.kExperimentalOptimization = true, arc.kExperimentalRAILCrossEntropy = false, arc.kExperimentalRAILCrossEntropyGrad = false, arc.kGenerateReference = true, arc.kGenerateTensorboard = false, arc.kHeuristicSliceLayouts = false, arc.kHeuristicTilerLayouts = true, arc.kLayoutTimeout = 1000 : i64, arc.kLegalizeDataflow = true, arc.kLegalizeSamples = false, arc.kMaximumGroupLatencyFactor = 5.000000e-02 : f32, arc.kMoveViews = false, arc.kOptimizeDramTransfers = false, arc.kOutputFolder = "/scratch/jobs/38941840", arc.kOverrideMaxFanout = 0 : i64, arc.kPefName = "jit_out", arc.kPlasmaIncludeReadStallCycles = false, arc.kPlasmaSkipInstrumentationOnRead0 = false, arc.kPlasmaSkipInstrumentationOnRead1 = false, arc.kPlasmaStageInstrumentation = "none", arc.kPrintSrcs = [], arc.kResourceAwareBuffers = false, arc.kSambaTuneGraph = false, arc.kSkipBufferBandwidthWeight = 1 : i64, arc.kSkipBufferMaxDepth = 4096 : i64, arc.kSkipBufferMaxFanin = 8 : i64, arc.kSkipBufferPmuWeight = 1 : i64, arc.kSplitSkipBuffer = true, arc.kStrictNodeNameOrdering = true, arc.kUseTBufferEverywhere = false, arc.kVerbose = true, mac.kDisableMacTiling = false, mac.kMacDisableMappingSort = false, mac.kMacDisableRetryLowerScalingFactor = false, mac.kMacEnableBufferTrialCompile = false, mac.kMacEnableHDRetryLowerVisibleResources = false, mac.kMacEnableNodeTrialCompile = false, mac.kMacEnableNodeTrialCompileLogging = false, mac.kMacIsUnrollingFirst = false, mac.kMacMaxTilingDepth = 0 : i64, mac.kMacOnlyCompileMac = false, mac.kMacPlot = false, mac.kMacPrintMappingIR = false, mac.kMacSectionCutBeamSearch = [2, 2], mac.kMacSplitCatAsStageBuffer = false, mac.kMacTemplateDBDir = "", mac.kMacTensorParallel = "none", mac.kMacUseHostFIFO = false}  {
  module @templates  {
    "air.Lambda"() ( {
      %0 = "air.lambda.input"() {kConfigured = true, kId = 0 : i64, kNodeCategory = 1 : i64} : () -> tensor<1xbf16>
      %1 = "air.lambda.input"() {kConfigured = true, kId = 1 : i64, kNodeCategory = 1 : i64} : () -> tensor<1x1x1x16xbf16>
      %2 = "air.Imm"() {kConfigured = true, kNodeCategory = 1 : i64, kValue = "1.000000"} : () -> tensor<1xbf16>
      %3 = "air.Mul"(%1, %2) {kBinaryOp = true, kConfigured = true, kNodeCategory = 1 : i64} : (tensor<1x1x1x16xbf16>, tensor<1xbf16>) -> tensor<1x1x1x16xbf16>
      %4 = "air.Sub"(%0, %3) {kBinaryOp = true, kConfigured = true, kNodeCategory = 1 : i64} : (tensor<1xbf16>, tensor<1x1x1x16xbf16>) -> tensor<1x1x1x16xbf16>
      "air.lambda.output"(%4) {kConfigured = true, kId = 0 : i64, kNodeCategory = 1 : i64} : (tensor<1x1x1x16xbf16>) -> ()
      "tlir.terminator"() {kConfigured = true, kUniqueId = 7 : i64} : () -> ()
    }) {kConfigured = true, kNodeCategory = 1 : i64, sym_name = "sub_lambda1", type = () -> ()} : () -> ()
  }
  module @sections  {
    %0 = "air.Tensor"() {kConfigured = true, kIsWeight = false, kNodeCategory = 5 : i64} : () -> tensor<1xbf16>
    %1 = "air.Tensor"() {kConfigured = true, kIsWeight = false, kNodeCategory = 5 : i64} : () -> tensor<1x1x1x16xbf16>
    %2 = "air.Collect"(%0, %1) {kConfigured = true, kLambda = @sub_lambda1, kMacInfoName = "collect_default", kNodeCategory = 1 : i64} : (tensor<1xbf16>, tensor<1x1x1x16xbf16>) -> tensor<1x1x1x16xbf16>
  }
  module @schedule  {
  }
  module @rnn_function  {
  }
}
[JITPerf] apply_binary_() 599443 ns
[JITPerf] apply_binary() 607863 ns
[compiler:info] [torch_rdu] mul ...
[compiler:info] [torch_rdu] empty_strided ...
[compiler:info] [torch_rdu] empty for size: {1, 1, 1, 16} ...
[JITPerf] &JIT::construct 31 ns
[JITPerf] force_evaluate::RDUTensorImpl 131 ns
[compiler:info] Forcing evaluation...
[compiler:info] owning_ir_storage count: 1
[JITPerf] force_evaluate::PrepareIR 19360 ns
[compiler:info] module @program attributes {arc.AIRMappingDecisionIsSpatial = false, arc.kAIRAddnOpt = true, arc.kAIRBufferBeforeConcatAddn = false, arc.kAIRBufferNonRedundancy = "", arc.kAIRDPTilingOptimization = false, arc.kAIRDisableConcatStoreOpt = false, arc.kAIRDisableLoadTilerOptWithDimOrdering = false, arc.kAIRDisableOptimizeRereadBuffer = false, arc.kAIREnableSkipBufferExtensionOpt = false, arc.kAIREnableStoreTilerOptWithDimOrdering = false, arc.kAIRForceDRAMFirstThenP2P = false, arc.kAIRMappingDecisionGlobalNumBatches = 1 : i64, arc.kAIRMetaPipeWithOneIterationRemoval = false, arc.kAIRTransposeMatMulTransformation = false, arc.kAppName = "jit_out", arc.kArchMajor = 1 : i64, arc.kArchMinor = 0 : i64, arc.kBoxLayoutSize = 2 : i64, arc.kBoxLayoutType = 0 : i64, arc.kConcisePrinting = false, arc.kDataParallelBf16StochasticRounding = false, arc.kDataParallelBf16StochasticRoundingHighStaticBatchSize = false, arc.kDataParallelBf16StochasticRoundingSeedName = "", arc.kEliminateBufferTimeout = 100 : i64, arc.kExperimentalOptimization = true, arc.kExperimentalRAILCrossEntropy = false, arc.kExperimentalRAILCrossEntropyGrad = false, arc.kGenerateReference = true, arc.kGenerateTensorboard = false, arc.kHeuristicSliceLayouts = false, arc.kHeuristicTilerLayouts = true, arc.kLayoutTimeout = 1000 : i64, arc.kLegalizeDataflow = true, arc.kLegalizeSamples = false, arc.kMaximumGroupLatencyFactor = 5.000000e-02 : f32, arc.kMoveViews = false, arc.kOptimizeDramTransfers = false, arc.kOutputFolder = "/scratch/jobs/38941840", arc.kOverrideMaxFanout = 0 : i64, arc.kPefName = "jit_out", arc.kPlasmaIncludeReadStallCycles = false, arc.kPlasmaSkipInstrumentationOnRead0 = false, arc.kPlasmaSkipInstrumentationOnRead1 = false, arc.kPlasmaStageInstrumentation = "none", arc.kPrintSrcs = [], arc.kResourceAwareBuffers = false, arc.kSambaTuneGraph = false, arc.kSkipBufferBandwidthWeight = 1 : i64, arc.kSkipBufferMaxDepth = 4096 : i64, arc.kSkipBufferMaxFanin = 8 : i64, arc.kSkipBufferPmuWeight = 1 : i64, arc.kSplitSkipBuffer = true, arc.kStrictNodeNameOrdering = true, arc.kUseTBufferEverywhere = false, arc.kVerbose = true, mac.kDisableMacTiling = false, mac.kMacDisableMappingSort = false, mac.kMacDisableRetryLowerScalingFactor = false, mac.kMacEnableBufferTrialCompile = false, mac.kMacEnableHDRetryLowerVisibleResources = false, mac.kMacEnableNodeTrialCompile = false, mac.kMacEnableNodeTrialCompileLogging = false, mac.kMacIsUnrollingFirst = false, mac.kMacMaxTilingDepth = 0 : i64, mac.kMacOnlyCompileMac = false, mac.kMacPlot = false, mac.kMacPrintMappingIR = false, mac.kMacSectionCutBeamSearch = [2, 2], mac.kMacSplitCatAsStageBuffer = false, mac.kMacTemplateDBDir = "", mac.kMacTensorParallel = "none", mac.kMacUseHostFIFO = false}  {
  module @templates  {
    "air.Lambda"() ( {
      %0 = "air.lambda.input"() {kConfigured = true, kId = 0 : i64, kNodeCategory = 1 : i64} : () -> tensor<1xbf16>
      %1 = "air.lambda.input"() {kConfigured = true, kId = 1 : i64, kNodeCategory = 1 : i64} : () -> tensor<1x1x1x16xbf16>
      %2 = "air.Imm"() {kConfigured = true, kNodeCategory = 1 : i64, kValue = "1.000000"} : () -> tensor<1xbf16>
      %3 = "air.Mul"(%1, %2) {kBinaryOp = true, kConfigured = true, kNodeCategory = 1 : i64} : (tensor<1x1x1x16xbf16>, tensor<1xbf16>) -> tensor<1x1x1x16xbf16>
      %4 = "air.Sub"(%0, %3) {kBinaryOp = true, kConfigured = true, kNodeCategory = 1 : i64} : (tensor<1xbf16>, tensor<1x1x1x16xbf16>) -> tensor<1x1x1x16xbf16>
      "air.lambda.output"(%4) {kConfigured = true, kId = 0 : i64, kNodeCategory = 1 : i64} : (tensor<1x1x1x16xbf16>) -> ()
      "tlir.terminator"() {kConfigured = true, kUniqueId = 7 : i64} : () -> ()
    }) {kConfigured = true, kNodeCategory = 1 : i64, sym_name = "sub_lambda1", type = () -> ()} : () -> ()
  }
  module @sections  {
    %0 = "air.Tensor"() {kConfigured = true, kIsWeight = false, kNodeCategory = 5 : i64} : () -> tensor<1xbf16>
    %1 = "air.Tensor"() {kConfigured = true, kIsWeight = false, kNodeCategory = 5 : i64} : () -> tensor<1x1x1x16xbf16>
    %2 = "air.Collect"(%0, %1) {kConfigured = true, kLambda = @sub_lambda1, kMacInfoName = "collect_default", kNodeCategory = 1 : i64} : (tensor<1xbf16>, tensor<1x1x1x16xbf16>) -> tensor<1x1x1x16xbf16>
    "air.Output"(%2) {kConfigured = true, kNodeCategory = 5 : i64} : (tensor<1x1x1x16xbf16>) -> ()
  }
  module @schedule  {
  }
  module @rnn_function  {
  }
}
[JITPerf] force_evaluate::PopulateMeta 59150 ns
[compiler:info] ====== HASH INFO: bf05703c91d1b46a25428c50e23107bdf94caeaab71b44e49c31dd08ced749a5
[mac:warn] Got a single node section and MAC may ignore capacity check for it
Updated RegionView start borders for 0 slice groups.
Updated RegionView start borders for 0 slice groups.
MAC050_AIRResourceAwarePeepholeOptIter converged after 1 iteration(s)
MAC055_AIRToTLIRLoweringNestedLoopsIter converged after 0 iteration(s)
Updated RegionView start borders for 0 slice groups.
Updated RegionView start borders for 0 slice groups.
Updated RegionView start borders for 0 slice groups.
Updated RegionView start borders for 0 slice groups.
[info    ] [PLASMA] Launching plasma compilation! See log file: /scratch/jobs/38941840/jit_out/jit_out.plasma_compile.log
[info    ] Total per-section passes: 77
[info    ] Compiling graph for section 0
[mac:info] Building nameddims for graph jit_out
[mac:info] Analyze tiling for graph: jit_out
[mac:info] Mapping for graph jit_out
[mac:info] Set up stage ID and metapipe ID for section 0
[mac:info] MAC decided on the following section cuts for graph jit_out
[mac:info] Amortized resources overall: 1.000000e+00 PCUs, 9.000000e+00 PMUs, projected latency: 3.500161e-05 s, FLOPS: 4.571218e-07 T/s, DDR_BW: 1.756127e-03 GB/s
[mac:info] Lowering to TLIR succeeded.
[rail:info] Logs are generated in /scratch/jobs/38941840/jit_out//rail_gen//rail_compile_logs for partition_0_0_.
[rail:info] Compilation succeeded for partition_0_0_. Elapsed time:  87ms
[info    ] [PASS] Running PRISM000_PreProcessPass0_0
[info    ] Generated utilization report file: /scratch/jobs/38941840/jit_out/jit_out.s0.utilization_report.txt
[info    ] [PASS] Running PRISM001_FeedbackGenPass0_0
[info    ] [PASS] Running PRISM002_PlasmaIRPass0_0
[compiler:info] Starting Plasma compile at /scratch/jobs/38941840/jit_out/plasma_ir_modules/sections_0_0
[compiler:info] Plasma compile succeeded.
[compiler:info] Starting Plasma compile at /scratch/jobs/38941840/jit_out/plasma_ir_modules/schedule_0_0
[compiler:info] Plasma compile succeeded.
[info    ] [PASS] Running PRISM003_PlasmaIRSymbolAllocExportPass0_0
[info    ] [PASS] Running PRISM004_LegalizeUtilizationPass0_0
[info    ] [PASS] Running PRISM005_LegalizeSocketConnectionsPass0_0
[info    ] [PASS] Running PRISM006_LayoutConsolidationPass0_0
[info    ] [PASS] Running PRISM007_PmuLoadStoreSetupPass0_0
[info    ] [PASS] Running PRISM008_FinalizeIoPass0_0
[info    ] [PASS] Running PRISM009_CollectConnectionPass0_0
[info    ] [PASS] Running PRISM010_NetworkValidationPass0_0
[info    ] [PASS] Running PRISM011_DramAnalyticalReportPass0_0
[warning ] [../prism/src/plasma/lib/Core/Unit/Agcu.cpp:2506] Large dram analysis difference: num_vector_with_request_length_overhead 8 num_vector_without_request_length_overhead 1 reference_num_vector 1
[warning ] [../prism/src/plasma/lib/Core/Unit/Agcu.cpp:2506] Large dram analysis difference: num_vector_with_request_length_overhead 8 num_vector_without_request_length_overhead 1 reference_num_vector 1
[warning ] [../prism/src/plasma/lib/Core/Unit/Agcu.cpp:2506] Large dram analysis difference: num_vector_with_request_length_overhead 8 num_vector_without_request_length_overhead 1 reference_num_vector 1
[warning ] [../prism/src/plasma/lib/Core/Unit/Agcu.cpp:2506] Large dram analysis difference: num_vector_with_request_length_overhead 8 num_vector_without_request_length_overhead 1 reference_num_vector 1
[warning ] [../prism/src/plasma/lib/Core/Unit/Agcu.cpp:2506] Large dram analysis difference: num_vector_with_request_length_overhead 8 num_vector_without_request_length_overhead 1 reference_num_vector 1
[warning ] [../prism/src/plasma/lib/Core/Unit/Agcu.cpp:2506] Large dram analysis difference: num_vector_with_request_length_overhead 8 num_vector_without_request_length_overhead 1 reference_num_vector 1
[info    ] Logging dram analysis report to /scratch/jobs/38941840/jit_out/prism_gen/reports/dram_analysis.json
[info    ] [PASS] Running PRISM012_AsmIRGenPNRConnectPass0_0
[info    ] [PASS] Running PRISM013_PrintLoweringPass0_0
[info    ] [PASS] Running PRISM014_AsmIRResourceAllocationPass0_0
[info    ] [PASS] Running PRISM015_PmuExprCompilePass0_0
[info    ] [PASS] Running PRISM016_GroupAnnotationPass0_0
[info    ] [PASS] Running PRISM017_TemplateDataflowGraphPass0_0
[info    ] [PASS] Running PRISM018_BoxUtilizationLegalizerPass0_0
[info    ] [PASS] Running PRISM019_LegalizePartitionAssignmentPass0_0
[info    ] [PASS] Running PRISM020_ConditionValidationPass0_0
[info    ] [PASS] Running PRISM021_AssignMetapipeStagePass0_0
[info    ] [PASS] Running PRISM022_AnalyticalModelFileGenPass0_0
[info    ] [PASS] Running PRISM023_PlasmaIRProgramStatePass0_0
[info    ] [PASS] Running PRISM024_MetapipeStageLatencyPass0_0
[info    ] Generated metapipe stage graph dot file: /scratch/jobs/38941840/jit_out/stage_buffers/partition_latency_0_0.dot
[info    ] [PASS] Running PRISM025_MetapipeStageGraphPass0_0
[info    ] [PASS] Running PRISM026_BandwidthAnnotationPass0_0
[info    ] BandwidthAnnotationPropagation log for Partition{0, 0}: /scratch/jobs/38941840/jit_out/prism_gen/plasma_compile_logs/PRISM026_BandwidthAnnotationPass0_0.BWP.0.0.log
[info    ] BandwidthAnnotationPropagation log for Partition{0, 0}: /scratch/jobs/38941840/jit_out/prism_gen/plasma_compile_logs/PRISM026_BandwidthAnnotationPass0_0.BWP.0.0.log
[info    ] 

============ Bandwidth QA Report ============

Total edges: 9
Bandwidth starving edges before pass (src/sink < 0.8): 7 (77.7778%)
Bandwidth back pressure edges before pass (src/sink > 1.2): 2 (22.2222%)
Missing source bandwidth after pass: 0 (0%)
Missing sink bandwidth after pass: 0 (0%)

[info    ] [PASS] Running PRISM027_FilePlacementPass_GenEdgeId0_0
[info    ] [PASS] Running PRISM028_FloorplanPass0_0
[info    ] Floorplanning log for Partition{0, 0}: /scratch/jobs/38941840/jit_out/prism_gen/plasma_compile_logs/PRISM028_FloorplanPass0_0.FP.0.0.log
[info    ] [PASS] Running PRISM029_VagAllocPass0_0
[info    ] [PASS] Running PRISM030_AsmIRPrePortAllocAsmTransformPass0_0
[info    ] [PASS MANAGER] Start PnR
[info    ] [PASS] Running PRISM031_PlacerPass0_0
[info    ] Prism config stored in: /scratch/jobs/38941840/jit_out/jit_out.configs
[info    ] Launching placement flow with (set) 1 threads
[info    ] BoxPlanner log for Partition{0, 0}: /scratch/jobs/38941840/jit_out/prism_gen/plasma_compile_logs/PRISM031_PlacerPass0_0.BP.0.0.log
[info    ] WavefrontPlacer log for Partition{0, 0}: /scratch/jobs/38941840/jit_out/prism_gen/plasma_compile_logs/PRISM031_PlacerPass0_0.DFG.0.0.log
[info    ] SAPlacer log for Partition{0, 0}: /scratch/jobs/38941840/jit_out/prism_gen/plasma_compile_logs/PRISM031_PlacerPass0_0.SA.0.0.log
[info    ] Placement runtime:	partition{0, 0}: 0s	
[info    ] [PASS] Running PRISM032_PmuTwinPass0_0
[info    ] [PASS] Running PRISM033_TemplateTileDoneLoweringPass0_0
[info    ] [PASS] Running PRISM034_VagConfigurePass0_0
[info    ] [PASS] Running PRISM035_VagAllocReportPass0_0
[info    ] [PASS] Running PRISM036_DataPortAllocatorPass0_0
[info    ] [PASS] Running PRISM037_AgcuOrchestrationPass0_0
[info    ] [PASS] Running PRISM038_RampControlPass0_0
[info    ] [PASS] Running PRISM039_E2EInjectionPass0_0
[info    ] [PASS] Running PRISM040_InstrumentationPreprocessPass0_0
[info    ] [PASS] Running PRISM041_BarrierLoweringPass0_0
[info    ] [PASS] Running PRISM042_ControlPortAllocatorPass0_0
[info    ] [PASS] Running PRISM043_ControlBandwidthAnnotationPass0_0
[info    ] [PASS] Running PRISM044_InstrumentationCounterPass0_0
[info    ] [PASS] Running PRISM045_ControlPortAllocatorPass0_0
[info    ] [PASS] Running PRISM046_ControlConnectorPass0_0
[info    ] [PASS] Running PRISM047_DataConnectorPass0_0
[info    ] [PASS MANAGER] Done with PnR
[info    ] [PASS] Running PRISM048_BandwidthReportPass0_0
[info    ] BandwidthReport log for Partition{0, 0}: /scratch/jobs/38941840/jit_out/prism_gen/plasma_compile_logs/PRISM048_BandwidthReportPass0_0.VECTOR.0.0.log
[info    ] BandwidthReport log for Partition{0, 0}: /scratch/jobs/38941840/jit_out/prism_gen/plasma_compile_logs/PRISM048_BandwidthReportPass0_0.SCALAR.0.0.log
[info    ] [PASS] Running PRISM049_FeedbackGenPass0_0
[info    ] [PASS] Running PRISM050_ControlConnectionCodegenPass0_0
[info    ] [PASS] Running PRISM051_DataConnectionCodegenPass0_0
[info    ] [PASS] Running PRISM052_FinalizePass0_0
[info    ] [PASS] Running PRISM053_FinalizeSnapshotPass0_0
[info    ] [PASS] Running PRISM054_VagExprCompilePass0_0
[info    ] [PASS] Running PRISM055_WatermarkPass0_0
[info    ] [PASS] Running PRISM056_OrphanUnitPass0_0
[info    ] [PASS] Running PRISM057_BoxFileGenPass0_0
[info    ] [PASS] Running PRISM058_P2pPass0_0
[info    ] [PASS] Running PRISM059_AsmIRPostPortAllocAsmTransformPass0_0
[info    ] [PASS] Running PRISM060_DataSocketAnnotationPass0_0
[info    ] [PASS] Running PRISM061_AuroraFileGenPass0_0
[info    ] [PASS] Running PRISM062_AsmLegalizerPass0_0
[info    ] [PASS] Running PRISM063_ExpectedPacketCountAnnotationPass0_0
[info    ] [PASS] Running PRISM064_ConnectionPatchPass0_0
[info    ] [PASS] Running PRISM065_AsmPlasticineCodegen0_0
[info    ] [PASS] Running PRISM066_ConnectionPatchPass0_0
[info    ] [PASS] Running PRISM067_PrintAsmPass_post_codegen0_0
[info    ] [PASS] Running PRISM068_PrintAsmPass_asm_ir_report0_0
[warning ] [../prism/src/plasma/lib/Core/Traversal/Analysis/RouteReportPass.cpp:34] Old report is not removed: /scratch/jobs/38941840/jit_out/jit_out_0_0.routes_report.txt
[info    ] [PASS] Running PRISM069_RouteReportPass0_0
[info    ] [PASS] Running PRISM070_AgcuFileGenPass0_0
[info    ] [PASS] Running PRISM071_CheckerPass0_0
[info    ] [PASS] Running PRISM072_ArgInsPass0_0
[info    ] [PASS] Running PRISM073_BitfileGenPass0_0
[info    ] bitfile /scratch/jobs/38941840/jit_out/jit_out.bin created
[info    ] [PASS] Running PRISM074_UtilizationFileGenPass0_0
[info    ] [PASS] Running PRISM075_PmuStatsPass0_0
[info    ] PMUStats: Writing /scratch/jobs/38941840/jit_out/jit_out_0_0.pmu_stat_info.csv
[info    ] PMUStats: Writing /scratch/jobs/38941840/jit_out/jit_out_0_0.pmu_stat_ctx_info.csv
[info    ] [PASS] Running PRISM076_PostProcessSectionsPass0_0
[info    ] Freeing memory for compilation phase 0__0
[info    ] Incremental Passes for Section(s) 0__0 Completed.
[info    ] Incremental Passes Completed.
[info    ] [PASS] Running PRISM077_SymInitFunctionsPass
[info    ] [PASS] Running PRISM078_DataAllocPass
[info    ] [PASS] Running PRISM079_HostFifoPass
[info    ] [PASS] Running PRISM080_HostFunctionPass
[info    ] [PASS] Running PRISM081_DebugFileGenPass
[info    ] [PASS] Running PRISM082_PefGenPass
[info    ] symbol log file /scratch/jobs/38941840/jit_out/jit_out.symbol.log created
[info    ] PEF file /scratch/jobs/38941840/jit_out/jit_out.pef created
[info    ] PEF log file /scratch/jobs/38941840/jit_out/jit_out.pef.log created
[info    ] bitfile /scratch/jobs/38941840/jit_out/jit_out.bin loaded
[info    ] bitfile /scratch/jobs/38941840/jit_out/jit_out.bin.slam created
[info    ] [PASS] Running PRISM083_DatafileGenPass
[info    ] datafile /scratch/jobs/38941840/jit_out/jit_out.data created
[info    ] Data log file /scratch/jobs/38941840/jit_out/jit_out.data.log created
[info    ] PnR node feedback file created /scratch/jobs/38941840/jit_out/jit_out.node_feedback.json
[info    ] PnR partition feedback file created /scratch/jobs/38941840/jit_out/jit_out.partition_feedback.json
[info    ] Global Passes Completed.
[arc:info] Generated debug_cpp files placed in: /scratch/jobs/38941840/jit_out/imcg_cpp/arc_gen/
[arc:info] Generated files placed in: /scratch/jobs/38941840/jit_out/arc_gen/
[arc:info] Compilation succeeded.
[mac:info] Mac Compilation succeeded.
[compiler:info] copy pef /scratch/jobs/38941840/jit_out/jit_out.pef to /scratch/jobs/38941840/jit_out/jit_out.0.pef
[compiler:info] Successfully compiled pef at /scratch/jobs/38941840/jit_out/jit_out.pef
[JITPerf] force_evaluate::CompilePEF 395094361 ns
[JITPerf] force_evaluate::FilterInputs 17670 ns
Log ID initialized to: [surajk][python][237584] at /var/log/sambaflow/runtime/sn.log
[JITPerf] force_evaluate::Runtime 406460116 ns
[compiler:info] ============ PEF run finished and get tensors ========
[compiler:info] [torch_rdu] Copy from: 0x55c8948c2220 to: 0x55c8948c2c80
[compiler:info]   Source: 64 bytes with name  0x0
[compiler:info]   Dest: 128 bytes with name  0x0
[JITPerf] &JIT::construct 420 ns
[JITPerf] get_empty() 300 ns
[compiler:info] [torch_rdu] empty for size: {} ...
[JITPerf] get_rdu_tensor_impl() 51 ns
[compiler:info] [torch_rdu] empty_strided ...
[compiler:info] [torch_rdu] empty for size: {1} ...
[compiler:info] [torch_rdu] Copy from: 0x55c8a639d680 to: 0x55c89500a6d0
[compiler:info]   Source: 8 bytes with name  0x0
[compiler:info]   Dest: 8 bytes with name  0x0
[compiler:info] Creating new IR...
[compiler:info] [torch_rdu] empty_strided ...
[compiler:info] [torch_rdu] empty for size: {1, 1, 1, 16} ...
[compiler:info] [torch_rdu] Copy from: 0x55c8948c2c80 to: 0x55c8887ce020
[compiler:info]   Source: 128 bytes with name  0x0
[compiler:info]   Dest: 64 bytes with name  0x0
[compiler:info] [torch_rdu] alias ...
[compiler:info] RDU shallow_copy_and_detach &&1 0x55c8887ce020 1 has_backanno: 0
[compiler:info] [torch_rdu] empty_strided ...
[compiler:info] [torch_rdu] empty for size: {1} ...
[compiler:info] [torch_rdu] Copy from: 0x55c89500a6d0 to: 0x55c8887ce020
[compiler:info]   Source: 8 bytes with name  0x0
[compiler:info]   Dest: 4 bytes with name  0x0
[compiler:info] [torch_rdu] alias ...
[compiler:info] RDU shallow_copy_and_detach &&1 0x55c8887ce020 1 has_backanno: 0
[JITPerf] extract_inputs_helper() 15533695 ns
[JITPerf] &JIT::construct 150 ns
[JITPerf] &JIT::construct 80 ns
[JITPerf] &JIT::construct 70 ns
[JITPerf] &JIT::construct 80 ns
[JITPerf] &JIT::construct 71 ns
[JITPerf] &JIT::construct 80 ns
[JITPerf] get_rdu_tensor_impl() 230 ns
[JITPerf] update_ir() 2750 ns
[compiler:info] module @program attributes {arc.AIRMappingDecisionIsSpatial = false, arc.kAIRAddnOpt = true, arc.kAIRBufferBeforeConcatAddn = false, arc.kAIRBufferNonRedundancy = "", arc.kAIRDPTilingOptimization = false, arc.kAIRDisableConcatStoreOpt = false, arc.kAIRDisableLoadTilerOptWithDimOrdering = false, arc.kAIRDisableOptimizeRereadBuffer = false, arc.kAIREnableSkipBufferExtensionOpt = false, arc.kAIREnableStoreTilerOptWithDimOrdering = false, arc.kAIRForceDRAMFirstThenP2P = false, arc.kAIRMappingDecisionGlobalNumBatches = 1 : i64, arc.kAIRMetaPipeWithOneIterationRemoval = false, arc.kAIRTransposeMatMulTransformation = false, arc.kAppName = "jit_out", arc.kArchMajor = 1 : i64, arc.kArchMinor = 0 : i64, arc.kBoxLayoutSize = 2 : i64, arc.kBoxLayoutType = 0 : i64, arc.kConcisePrinting = false, arc.kDataParallelBf16StochasticRounding = false, arc.kDataParallelBf16StochasticRoundingHighStaticBatchSize = false, arc.kDataParallelBf16StochasticRoundingSeedName = "", arc.kEliminateBufferTimeout = 100 : i64, arc.kExperimentalOptimization = true, arc.kExperimentalRAILCrossEntropy = false, arc.kExperimentalRAILCrossEntropyGrad = false, arc.kGenerateReference = true, arc.kGenerateTensorboard = false, arc.kHeuristicSliceLayouts = false, arc.kHeuristicTilerLayouts = true, arc.kLayoutTimeout = 1000 : i64, arc.kLegalizeDataflow = true, arc.kLegalizeSamples = false, arc.kMaximumGroupLatencyFactor = 5.000000e-02 : f32, arc.kMoveViews = false, arc.kOptimizeDramTransfers = false, arc.kOutputFolder = "/scratch/jobs/38941840", arc.kOverrideMaxFanout = 0 : i64, arc.kPefName = "jit_out", arc.kPlasmaIncludeReadStallCycles = false, arc.kPlasmaSkipInstrumentationOnRead0 = false, arc.kPlasmaSkipInstrumentationOnRead1 = false, arc.kPlasmaStageInstrumentation = "none", arc.kPrintSrcs = [], arc.kResourceAwareBuffers = false, arc.kSambaTuneGraph = false, arc.kSkipBufferBandwidthWeight = 1 : i64, arc.kSkipBufferMaxDepth = 4096 : i64, arc.kSkipBufferMaxFanin = 8 : i64, arc.kSkipBufferPmuWeight = 1 : i64, arc.kSplitSkipBuffer = true, arc.kStrictNodeNameOrdering = true, arc.kUseTBufferEverywhere = false, arc.kVerbose = true, mac.kDisableMacTiling = false, mac.kMacDisableMappingSort = false, mac.kMacDisableRetryLowerScalingFactor = false, mac.kMacEnableBufferTrialCompile = false, mac.kMacEnableHDRetryLowerVisibleResources = false, mac.kMacEnableNodeTrialCompile = false, mac.kMacEnableNodeTrialCompileLogging = false, mac.kMacIsUnrollingFirst = false, mac.kMacMaxTilingDepth = 0 : i64, mac.kMacOnlyCompileMac = false, mac.kMacPlot = false, mac.kMacPrintMappingIR = false, mac.kMacSectionCutBeamSearch = [2, 2], mac.kMacSplitCatAsStageBuffer = false, mac.kMacTemplateDBDir = "", mac.kMacTensorParallel = "none", mac.kMacUseHostFIFO = false}  {
  module @templates  {
    "air.Lambda"() ( {
      %0 = "air.lambda.input"() {kConfigured = true, kId = 0 : i64, kNodeCategory = 1 : i64} : () -> tensor<1x1x1x16xbf16>
      %1 = "air.lambda.input"() {kConfigured = true, kId = 1 : i64, kNodeCategory = 1 : i64} : () -> tensor<1xbf16>
      %2 = "air.Mul"(%0, %1) {kBinaryOp = true, kConfigured = true, kNodeCategory = 1 : i64} : (tensor<1x1x1x16xbf16>, tensor<1xbf16>) -> tensor<1x1x1x16xbf16>
      "air.lambda.output"(%2) {kConfigured = true, kId = 0 : i64, kNodeCategory = 1 : i64} : (tensor<1x1x1x16xbf16>) -> ()
      "tlir.terminator"() {kConfigured = true, kUniqueId = 5 : i64} : () -> ()
    }) {kConfigured = true, kNodeCategory = 1 : i64, sym_name = "mul_lambda1", type = () -> ()} : () -> ()
  }
  module @sections  {
    %0 = "air.Tensor"() {kConfigured = true, kIsWeight = false, kNodeCategory = 5 : i64} : () -> tensor<1x1x1x16xbf16>
    %1 = "air.Tensor"() {kConfigured = true, kIsWeight = false, kNodeCategory = 5 : i64} : () -> tensor<1xbf16>
    %2 = "air.Collect"(%0, %1) {kConfigured = true, kLambda = @mul_lambda1, kMacInfoName = "collect_default", kNodeCategory = 1 : i64} : (tensor<1x1x1x16xbf16>, tensor<1xbf16>) -> tensor<1x1x1x16xbf16>
  }
  module @schedule  {
  }
  module @rnn_function  {
  }
}
[JITPerf] apply_binary_() 16123127 ns
[JITPerf] apply_binary() 16707761 ns
[compiler:info] [torch_rdu] slice...
[compiler:info] [torch_rdu] empty_strided ...
[compiler:info] [torch_rdu] empty for size: {1, 1} ...
[compiler:info] [torch_rdu] Copy from: 0x55c8a639d680 to: 0x55c8948c1e90
[compiler:info]   Source: 8 bytes with name  0x0
[compiler:info]   Dest: 4 bytes with name  0x0
[compiler:info] RDU shallow_copy_and_detach &&1 0x55c896e210d0 1 has_backanno: 0
[compiler:info] set_tensor_view:
[compiler:info]   sizes: {1, 512}
[compiler:info]   strides: {512, 1}
[compiler:info]   offset: 0
[compiler:info] [torch_rdu] slice...
[compiler:info] [torch_rdu] empty_strided ...
[compiler:info] [torch_rdu] empty for size: {1, 1} ...
[compiler:info] [torch_rdu] Copy from: 0x55c8a639d680 to: 0x55c8948c2c80
[compiler:info]   Source: 8 bytes with name  0x0
[compiler:info]   Dest: 4 bytes with name  0x0
[compiler:info] RDU shallow_copy_and_detach &&1 0x55c8948c2220 1 has_backanno: 0
[compiler:info] set_tensor_view:
[compiler:info]   sizes: {1, 16}
[compiler:info]   strides: {512, 1}
[compiler:info]   offset: 0
[compiler:info] [torch_rdu_cpu_fallback] _reshape_alias ...
[JITPerf] &JIT::construct 170 ns
[compiler:info] [torch_rdu] empty_strided ...
[compiler:info] [torch_rdu] empty for size: {16} ...
[compiler:info] [torch_rdu] Copy from: 0x55c8a639d680 to: 0x55c8948c2220
[compiler:info]   Source: 128 bytes with name  0x0
[compiler:info]   Dest: 128 bytes with name  0x0
[compiler:info] [torch_rdu_cpu_fallback] index_select ...
[JITPerf] &JIT::construct 240 ns
[JITPerf] &JIT::construct 60 ns
[compiler:info] [torch_rdu] empty_strided ...
[compiler:info] [torch_rdu] empty for size: {16, 768} ...
[compiler:info] [torch_rdu] Copy from: 0x55c8a639d680 to: 0x55c8887ce020
[compiler:info]   Source: 49152 bytes with name  0x0
[compiler:info]   Dest: 49152 bytes with name  0x0
[compiler:info] [torch_rdu] view ...
[compiler:info] RDU shallow_copy_and_detach &&1 0x55c8887ce020 1 has_backanno: 0
[compiler:info] set_tensor_view:
[compiler:info]   sizes: {1, 16, 768}
[compiler:info]   strides: {12288, 768, 1}
[compiler:info]   offset: 0
[compiler:info] [torch_rdu_cpu_fallback] _reshape_alias ...
[JITPerf] &JIT::construct 140 ns
[compiler:info] [torch_rdu] empty_strided ...
[compiler:info] [torch_rdu] empty for size: {16} ...
[compiler:info] [torch_rdu] Copy from: 0x55c8a639d680 to: 0x55c8948c2220
[compiler:info]   Source: 4096 bytes with name  0x0
[compiler:info]   Dest: 128 bytes with name  0x0
[compiler:info] [torch_rdu_cpu_fallback] index_select ...
[JITPerf] &JIT::construct 60 ns
[JITPerf] &JIT::construct 60 ns
[compiler:info] [torch_rdu] empty_strided ...
[compiler:info] [torch_rdu] empty for size: {16, 768} ...
[compiler:info] [torch_rdu] Copy from: 0x55c8a639d680 to: 0x55c8887ce020
[compiler:info]   Source: 49152 bytes with name  0x0
[compiler:info]   Dest: 49152 bytes with name  0x0
[compiler:info] [torch_rdu] view ...
[compiler:info] RDU shallow_copy_and_detach &&1 0x55c8887ce020 1 has_backanno: 0
[compiler:info] set_tensor_view:
[compiler:info]   sizes: {1, 16, 768}
[compiler:info]   strides: {12288, 768, 1}
[compiler:info]   offset: 0
[compiler:info] [torch_rdu_cpu_fallback] _reshape_alias ...
[JITPerf] &JIT::construct 100 ns
[compiler:info] [torch_rdu] empty_strided ...
[compiler:info] [torch_rdu] empty for size: {16} ...
[compiler:info] [torch_rdu] Copy from: 0x55c8a639d680 to: 0x55c8948c2220
[compiler:info]   Source: 128 bytes with name  0x0
[compiler:info]   Dest: 128 bytes with name  0x0
[compiler:info] [torch_rdu_cpu_fallback] index_select ...
[JITPerf] &JIT::construct 60 ns
[JITPerf] &JIT::construct 60 ns
[compiler:info] [torch_rdu] empty_strided ...
[compiler:info] [torch_rdu] empty for size: {16, 768} ...
[compiler:info] [torch_rdu] Copy from: 0x55c8a639d680 to: 0x55c8887ce020
[compiler:info]   Source: 49152 bytes with name  0x0
[compiler:info]   Dest: 49152 bytes with name  0x0
[compiler:info] [torch_rdu] view ...
[compiler:info] RDU shallow_copy_and_detach &&1 0x55c8887ce020 1 has_backanno: 0
[compiler:info] set_tensor_view:
[compiler:info]   sizes: {1, 16, 768}
[compiler:info]   strides: {12288, 768, 1}
[compiler:info]   offset: 0
[compiler:info] [torch_rdu] add ...
[JITPerf] &JIT::construct 91 ns
[JITPerf] get_empty() 240 ns
[compiler:info] [torch_rdu] empty for size: {} ...
[JITPerf] get_rdu_tensor_impl() 100 ns
[compiler:info] Creating new IR...
[compiler:info] [torch_rdu] alias ...
[compiler:info] RDU shallow_copy_and_detach &&1 0x55c8a5f0f760 1 has_backanno: 0
[JITPerf] &JIT::construct 180 ns
[compiler:info] [torch_rdu] alias ...
[compiler:info] RDU shallow_copy_and_detach &&1 0x55c8a618cbc0 1 has_backanno: 0
[JITPerf] &JIT::construct 100 ns
[JITPerf] extract_inputs_helper() 1055675 ns
[JITPerf] &JIT::construct 60 ns
[JITPerf] &JIT::construct 60 ns
[JITPerf] &JIT::construct 60 ns
[JITPerf] &JIT::construct 70 ns
[JITPerf] &JIT::construct 70 ns
[JITPerf] &JIT::construct 60 ns
[JITPerf] &JIT::construct 60 ns
[JITPerf] &JIT::construct 80 ns
[JITPerf] get_rdu_tensor_impl() 229 ns
[JITPerf] update_ir() 2240 ns
[compiler:info] module @program attributes {arc.AIRMappingDecisionIsSpatial = false, arc.kAIRAddnOpt = true, arc.kAIRBufferBeforeConcatAddn = false, arc.kAIRBufferNonRedundancy = "", arc.kAIRDPTilingOptimization = false, arc.kAIRDisableConcatStoreOpt = false, arc.kAIRDisableLoadTilerOptWithDimOrdering = false, arc.kAIRDisableOptimizeRereadBuffer = false, arc.kAIREnableSkipBufferExtensionOpt = false, arc.kAIREnableStoreTilerOptWithDimOrdering = false, arc.kAIRForceDRAMFirstThenP2P = false, arc.kAIRMappingDecisionGlobalNumBatches = 1 : i64, arc.kAIRMetaPipeWithOneIterationRemoval = false, arc.kAIRTransposeMatMulTransformation = false, arc.kAppName = "jit_out", arc.kArchMajor = 1 : i64, arc.kArchMinor = 0 : i64, arc.kBoxLayoutSize = 2 : i64, arc.kBoxLayoutType = 0 : i64, arc.kConcisePrinting = false, arc.kDataParallelBf16StochasticRounding = false, arc.kDataParallelBf16StochasticRoundingHighStaticBatchSize = false, arc.kDataParallelBf16StochasticRoundingSeedName = "", arc.kEliminateBufferTimeout = 100 : i64, arc.kExperimentalOptimization = true, arc.kExperimentalRAILCrossEntropy = false, arc.kExperimentalRAILCrossEntropyGrad = false, arc.kGenerateReference = true, arc.kGenerateTensorboard = false, arc.kHeuristicSliceLayouts = false, arc.kHeuristicTilerLayouts = true, arc.kLayoutTimeout = 1000 : i64, arc.kLegalizeDataflow = true, arc.kLegalizeSamples = false, arc.kMaximumGroupLatencyFactor = 5.000000e-02 : f32, arc.kMoveViews = false, arc.kOptimizeDramTransfers = false, arc.kOutputFolder = "/scratch/jobs/38941840", arc.kOverrideMaxFanout = 0 : i64, arc.kPefName = "jit_out", arc.kPlasmaIncludeReadStallCycles = false, arc.kPlasmaSkipInstrumentationOnRead0 = false, arc.kPlasmaSkipInstrumentationOnRead1 = false, arc.kPlasmaStageInstrumentation = "none", arc.kPrintSrcs = [], arc.kResourceAwareBuffers = false, arc.kSambaTuneGraph = false, arc.kSkipBufferBandwidthWeight = 1 : i64, arc.kSkipBufferMaxDepth = 4096 : i64, arc.kSkipBufferMaxFanin = 8 : i64, arc.kSkipBufferPmuWeight = 1 : i64, arc.kSplitSkipBuffer = true, arc.kStrictNodeNameOrdering = true, arc.kUseTBufferEverywhere = false, arc.kVerbose = true, mac.kDisableMacTiling = false, mac.kMacDisableMappingSort = false, mac.kMacDisableRetryLowerScalingFactor = false, mac.kMacEnableBufferTrialCompile = false, mac.kMacEnableHDRetryLowerVisibleResources = false, mac.kMacEnableNodeTrialCompile = false, mac.kMacEnableNodeTrialCompileLogging = false, mac.kMacIsUnrollingFirst = false, mac.kMacMaxTilingDepth = 0 : i64, mac.kMacOnlyCompileMac = false, mac.kMacPlot = false, mac.kMacPrintMappingIR = false, mac.kMacSectionCutBeamSearch = [2, 2], mac.kMacSplitCatAsStageBuffer = false, mac.kMacTemplateDBDir = "", mac.kMacTensorParallel = "none", mac.kMacUseHostFIFO = false}  {
  module @templates  {
    "air.Lambda"() ( {
      %0 = "air.lambda.input"() {kConfigured = true, kId = 0 : i64, kNodeCategory = 1 : i64} : () -> tensor<1x16x768xbf16>
      %1 = "air.lambda.input"() {kConfigured = true, kId = 1 : i64, kNodeCategory = 1 : i64} : () -> tensor<1x16x768xbf16>
      %2 = "air.Imm"() {kConfigured = true, kNodeCategory = 1 : i64, kValue = "1.000000"} : () -> tensor<1xbf16>
      %3 = "air.Mul"(%1, %2) {kBinaryOp = true, kConfigured = true, kNodeCategory = 1 : i64} : (tensor<1x16x768xbf16>, tensor<1xbf16>) -> tensor<1x16x768xbf16>
      %4 = "air.Add"(%0, %3) {kBinaryOp = true, kConfigured = true, kNodeCategory = 1 : i64} : (tensor<1x16x768xbf16>, tensor<1x16x768xbf16>) -> tensor<1x16x768xbf16>
      "air.lambda.output"(%4) {kConfigured = true, kId = 0 : i64, kNodeCategory = 1 : i64} : (tensor<1x16x768xbf16>) -> ()
      "tlir.terminator"() {kConfigured = true, kUniqueId = 7 : i64} : () -> ()
    }) {kConfigured = true, kNodeCategory = 1 : i64, sym_name = "add_lambda1", type = () -> ()} : () -> ()
  }
  module @sections  {
    %0 = "air.Tensor"() {kConfigured = true, kIsWeight = false, kNodeCategory = 5 : i64} : () -> tensor<16x768xbf16>
    %1 = "air.Reshape"(%0) {kConfigured = true, kNodeCategory = 1 : i64} : (tensor<16x768xbf16>) -> tensor<1x16x768xbf16>
    %2 = "air.Tensor"() {kConfigured = true, kIsWeight = false, kNodeCategory = 5 : i64} : () -> tensor<16x768xbf16>
    %3 = "air.Reshape"(%2) {kConfigured = true, kNodeCategory = 1 : i64} : (tensor<16x768xbf16>) -> tensor<1x16x768xbf16>
    %4 = "air.Collect"(%1, %3) {kConfigured = true, kLambda = @add_lambda1, kMacInfoName = "collect_default", kNodeCategory = 1 : i64} : (tensor<1x16x768xbf16>, tensor<1x16x768xbf16>) -> tensor<1x16x768xbf16>
  }
  module @schedule  {
  }
  module @rnn_function  {
  }
}
[JITPerf] apply_binary_() 1376436 ns
[JITPerf] apply_binary() 1385996 ns
[compiler:info] [torch_rdu] add ...
[JITPerf] &JIT::construct 71 ns
[JITPerf] get_empty() 189 ns
[compiler:info] [torch_rdu] empty for size: {} ...
[JITPerf] get_rdu_tensor_impl() 80 ns
[compiler:info] [torch_rdu] alias ...
[compiler:info] RDU shallow_copy_and_detach &&1 0x55c8a6168cb0 1 has_backanno: 0
[JITPerf] &JIT::construct 80 ns
[JITPerf] extract_inputs_helper() 57710 ns
[JITPerf] &JIT::construct 60 ns
[JITPerf] &JIT::construct 70 ns
[JITPerf] &JIT::construct 70 ns
[JITPerf] &JIT::construct 60 ns
[JITPerf] &JIT::construct 60 ns
[JITPerf] &JIT::construct 60 ns
[JITPerf] &JIT::construct 60 ns
[JITPerf] &JIT::construct 70 ns
[JITPerf] get_rdu_tensor_impl() 150 ns
[JITPerf] update_ir() 1670 ns
[compiler:info] module @program attributes {arc.AIRMappingDecisionIsSpatial = false, arc.kAIRAddnOpt = true, arc.kAIRBufferBeforeConcatAddn = false, arc.kAIRBufferNonRedundancy = "", arc.kAIRDPTilingOptimization = false, arc.kAIRDisableConcatStoreOpt = false, arc.kAIRDisableLoadTilerOptWithDimOrdering = false, arc.kAIRDisableOptimizeRereadBuffer = false, arc.kAIREnableSkipBufferExtensionOpt = false, arc.kAIREnableStoreTilerOptWithDimOrdering = false, arc.kAIRForceDRAMFirstThenP2P = false, arc.kAIRMappingDecisionGlobalNumBatches = 1 : i64, arc.kAIRMetaPipeWithOneIterationRemoval = false, arc.kAIRTransposeMatMulTransformation = false, arc.kAppName = "jit_out", arc.kArchMajor = 1 : i64, arc.kArchMinor = 0 : i64, arc.kBoxLayoutSize = 2 : i64, arc.kBoxLayoutType = 0 : i64, arc.kConcisePrinting = false, arc.kDataParallelBf16StochasticRounding = false, arc.kDataParallelBf16StochasticRoundingHighStaticBatchSize = false, arc.kDataParallelBf16StochasticRoundingSeedName = "", arc.kEliminateBufferTimeout = 100 : i64, arc.kExperimentalOptimization = true, arc.kExperimentalRAILCrossEntropy = false, arc.kExperimentalRAILCrossEntropyGrad = false, arc.kGenerateReference = true, arc.kGenerateTensorboard = false, arc.kHeuristicSliceLayouts = false, arc.kHeuristicTilerLayouts = true, arc.kLayoutTimeout = 1000 : i64, arc.kLegalizeDataflow = true, arc.kLegalizeSamples = false, arc.kMaximumGroupLatencyFactor = 5.000000e-02 : f32, arc.kMoveViews = false, arc.kOptimizeDramTransfers = false, arc.kOutputFolder = "/scratch/jobs/38941840", arc.kOverrideMaxFanout = 0 : i64, arc.kPefName = "jit_out", arc.kPlasmaIncludeReadStallCycles = false, arc.kPlasmaSkipInstrumentationOnRead0 = false, arc.kPlasmaSkipInstrumentationOnRead1 = false, arc.kPlasmaStageInstrumentation = "none", arc.kPrintSrcs = [], arc.kResourceAwareBuffers = false, arc.kSambaTuneGraph = false, arc.kSkipBufferBandwidthWeight = 1 : i64, arc.kSkipBufferMaxDepth = 4096 : i64, arc.kSkipBufferMaxFanin = 8 : i64, arc.kSkipBufferPmuWeight = 1 : i64, arc.kSplitSkipBuffer = true, arc.kStrictNodeNameOrdering = true, arc.kUseTBufferEverywhere = false, arc.kVerbose = true, mac.kDisableMacTiling = false, mac.kMacDisableMappingSort = false, mac.kMacDisableRetryLowerScalingFactor = false, mac.kMacEnableBufferTrialCompile = false, mac.kMacEnableHDRetryLowerVisibleResources = false, mac.kMacEnableNodeTrialCompile = false, mac.kMacEnableNodeTrialCompileLogging = false, mac.kMacIsUnrollingFirst = false, mac.kMacMaxTilingDepth = 0 : i64, mac.kMacOnlyCompileMac = false, mac.kMacPlot = false, mac.kMacPrintMappingIR = false, mac.kMacSectionCutBeamSearch = [2, 2], mac.kMacSplitCatAsStageBuffer = false, mac.kMacTemplateDBDir = "", mac.kMacTensorParallel = "none", mac.kMacUseHostFIFO = false}  {
  module @templates  {
    "air.Lambda"() ( {
      %0 = "air.lambda.input"() {kConfigured = true, kId = 0 : i64, kNodeCategory = 1 : i64} : () -> tensor<1x16x768xbf16>
      %1 = "air.lambda.input"() {kConfigured = true, kId = 1 : i64, kNodeCategory = 1 : i64} : () -> tensor<1x16x768xbf16>
      %2 = "air.Imm"() {kConfigured = true, kNodeCategory = 1 : i64, kValue = "1.000000"} : () -> tensor<1xbf16>
      %3 = "air.Mul"(%1, %2) {kBinaryOp = true, kConfigured = true, kNodeCategory = 1 : i64} : (tensor<1x16x768xbf16>, tensor<1xbf16>) -> tensor<1x16x768xbf16>
      %4 = "air.Add"(%0, %3) {kBinaryOp = true, kConfigured = true, kNodeCategory = 1 : i64} : (tensor<1x16x768xbf16>, tensor<1x16x768xbf16>) -> tensor<1x16x768xbf16>
      "air.lambda.output"(%4) {kConfigured = true, kId = 0 : i64, kNodeCategory = 1 : i64} : (tensor<1x16x768xbf16>) -> ()
      "tlir.terminator"() {kConfigured = true, kUniqueId = 7 : i64} : () -> ()
    }) {kConfigured = true, kNodeCategory = 1 : i64, sym_name = "add_lambda2", type = () -> ()} : () -> ()
    "air.Lambda"() ( {
      %0 = "air.lambda.input"() {kConfigured = true, kId = 0 : i64, kNodeCategory = 1 : i64} : () -> tensor<1x16x768xbf16>
      %1 = "air.lambda.input"() {kConfigured = true, kId = 1 : i64, kNodeCategory = 1 : i64} : () -> tensor<1x16x768xbf16>
      %2 = "air.Imm"() {kConfigured = true, kNodeCategory = 1 : i64, kValue = "1.000000"} : () -> tensor<1xbf16>
      %3 = "air.Mul"(%1, %2) {kBinaryOp = true, kConfigured = true, kNodeCategory = 1 : i64} : (tensor<1x16x768xbf16>, tensor<1xbf16>) -> tensor<1x16x768xbf16>
      %4 = "air.Add"(%0, %3) {kBinaryOp = true, kConfigured = true, kNodeCategory = 1 : i64} : (tensor<1x16x768xbf16>, tensor<1x16x768xbf16>) -> tensor<1x16x768xbf16>
      "air.lambda.output"(%4) {kConfigured = true, kId = 0 : i64, kNodeCategory = 1 : i64} : (tensor<1x16x768xbf16>) -> ()
      "tlir.terminator"() {kConfigured = true, kUniqueId = 7 : i64} : () -> ()
    }) {kConfigured = true, kNodeCategory = 1 : i64, sym_name = "add_lambda1", type = () -> ()} : () -> ()
  }
  module @sections  {
    %0 = "air.Tensor"() {kConfigured = true, kIsWeight = false, kNodeCategory = 5 : i64} : () -> tensor<16x768xbf16>
    %1 = "air.Reshape"(%0) {kConfigured = true, kNodeCategory = 1 : i64} : (tensor<16x768xbf16>) -> tensor<1x16x768xbf16>
    %2 = "air.Tensor"() {kConfigured = true, kIsWeight = false, kNodeCategory = 5 : i64} : () -> tensor<16x768xbf16>
    %3 = "air.Reshape"(%2) {kConfigured = true, kNodeCategory = 1 : i64} : (tensor<16x768xbf16>) -> tensor<1x16x768xbf16>
    %4 = "air.Collect"(%1, %3) {kConfigured = true, kLambda = @add_lambda1, kMacInfoName = "collect_default", kNodeCategory = 1 : i64} : (tensor<1x16x768xbf16>, tensor<1x16x768xbf16>) -> tensor<1x16x768xbf16>
    %5 = "air.Tensor"() {kConfigured = true, kIsWeight = false, kNodeCategory = 5 : i64} : () -> tensor<16x768xbf16>
    %6 = "air.Reshape"(%5) {kConfigured = true, kNodeCategory = 1 : i64} : (tensor<16x768xbf16>) -> tensor<1x16x768xbf16>
    %7 = "air.Collect"(%4, %6) {kConfigured = true, kLambda = @add_lambda2, kMacInfoName = "collect_default", kNodeCategory = 1 : i64} : (tensor<1x16x768xbf16>, tensor<1x16x768xbf16>) -> tensor<1x16x768xbf16>
  }
  module @schedule  {
  }
  module @rnn_function  {
  }
}
[JITPerf] apply_binary_() 360811 ns
[JITPerf] apply_binary() 371342 ns
[compiler:info] [torch_rdu] native_layer_norm ... 
[JITPerf] &JIT::construct 120 ns
[JITPerf] get_empty() 300 ns
[compiler:info] [torch_rdu] empty for size: {} ...
[JITPerf] get_rdu_tensor_impl() 100 ns
[compiler:info] [torch_rdu] alias ...
[compiler:info] RDU shallow_copy_and_detach &&1 0x55c8887f1120 1 has_backanno: 0
[compiler:info] [torch_rdu] alias ...
[compiler:info] RDU shallow_copy_and_detach &&1 0x55c8887f8ab0 1 has_backanno: 0
[JITPerf] extract_inputs_helper() 82270 ns
[JITPerf] &JIT::construct 90 ns
[JITPerf] &JIT::construct 60 ns
[JITPerf] &JIT::construct 60 ns
[JITPerf] get_rdu_tensor_impl() 149 ns
[JITPerf] update_ir() 1700 ns
[compiler:info] module @program attributes {arc.AIRMappingDecisionIsSpatial = false, arc.kAIRAddnOpt = true, arc.kAIRBufferBeforeConcatAddn = false, arc.kAIRBufferNonRedundancy = "", arc.kAIRDPTilingOptimization = false, arc.kAIRDisableConcatStoreOpt = false, arc.kAIRDisableLoadTilerOptWithDimOrdering = false, arc.kAIRDisableOptimizeRereadBuffer = false, arc.kAIREnableSkipBufferExtensionOpt = false, arc.kAIREnableStoreTilerOptWithDimOrdering = false, arc.kAIRForceDRAMFirstThenP2P = false, arc.kAIRMappingDecisionGlobalNumBatches = 1 : i64, arc.kAIRMetaPipeWithOneIterationRemoval = false, arc.kAIRTransposeMatMulTransformation = false, arc.kAppName = "jit_out", arc.kArchMajor = 1 : i64, arc.kArchMinor = 0 : i64, arc.kBoxLayoutSize = 2 : i64, arc.kBoxLayoutType = 0 : i64, arc.kConcisePrinting = false, arc.kDataParallelBf16StochasticRounding = false, arc.kDataParallelBf16StochasticRoundingHighStaticBatchSize = false, arc.kDataParallelBf16StochasticRoundingSeedName = "", arc.kEliminateBufferTimeout = 100 : i64, arc.kExperimentalOptimization = true, arc.kExperimentalRAILCrossEntropy = false, arc.kExperimentalRAILCrossEntropyGrad = false, arc.kGenerateReference = true, arc.kGenerateTensorboard = false, arc.kHeuristicSliceLayouts = false, arc.kHeuristicTilerLayouts = true, arc.kLayoutTimeout = 1000 : i64, arc.kLegalizeDataflow = true, arc.kLegalizeSamples = false, arc.kMaximumGroupLatencyFactor = 5.000000e-02 : f32, arc.kMoveViews = false, arc.kOptimizeDramTransfers = false, arc.kOutputFolder = "/scratch/jobs/38941840", arc.kOverrideMaxFanout = 0 : i64, arc.kPefName = "jit_out", arc.kPlasmaIncludeReadStallCycles = false, arc.kPlasmaSkipInstrumentationOnRead0 = false, arc.kPlasmaSkipInstrumentationOnRead1 = false, arc.kPlasmaStageInstrumentation = "none", arc.kPrintSrcs = [], arc.kResourceAwareBuffers = false, arc.kSambaTuneGraph = false, arc.kSkipBufferBandwidthWeight = 1 : i64, arc.kSkipBufferMaxDepth = 4096 : i64, arc.kSkipBufferMaxFanin = 8 : i64, arc.kSkipBufferPmuWeight = 1 : i64, arc.kSplitSkipBuffer = true, arc.kStrictNodeNameOrdering = true, arc.kUseTBufferEverywhere = false, arc.kVerbose = true, mac.kDisableMacTiling = false, mac.kMacDisableMappingSort = false, mac.kMacDisableRetryLowerScalingFactor = false, mac.kMacEnableBufferTrialCompile = false, mac.kMacEnableHDRetryLowerVisibleResources = false, mac.kMacEnableNodeTrialCompile = false, mac.kMacEnableNodeTrialCompileLogging = false, mac.kMacIsUnrollingFirst = false, mac.kMacMaxTilingDepth = 0 : i64, mac.kMacOnlyCompileMac = false, mac.kMacPlot = false, mac.kMacPrintMappingIR = false, mac.kMacSectionCutBeamSearch = [2, 2], mac.kMacSplitCatAsStageBuffer = false, mac.kMacTemplateDBDir = "", mac.kMacTensorParallel = "none", mac.kMacUseHostFIFO = false}  {
  module @templates  {
    "air.Lambda"() ( {
      %0 = "air.lambda.input"() {kConfigured = true, kId = 0 : i64, kNodeCategory = 1 : i64} : () -> tensor<1x16x768xbf16>
      %1 = "air.lambda.input"() {kConfigured = true, kId = 1 : i64, kNodeCategory = 1 : i64} : () -> tensor<1x16x768xbf16>
      %2 = "air.Imm"() {kConfigured = true, kNodeCategory = 1 : i64, kValue = "1.000000"} : () -> tensor<1xbf16>
      %3 = "air.Mul"(%1, %2) {kBinaryOp = true, kConfigured = true, kNodeCategory = 1 : i64} : (tensor<1x16x768xbf16>, tensor<1xbf16>) -> tensor<1x16x768xbf16>
      %4 = "air.Add"(%0, %3) {kBinaryOp = true, kConfigured = true, kNodeCategory = 1 : i64} : (tensor<1x16x768xbf16>, tensor<1x16x768xbf16>) -> tensor<1x16x768xbf16>
      "air.lambda.output"(%4) {kConfigured = true, kId = 0 : i64, kNodeCategory = 1 : i64} : (tensor<1x16x768xbf16>) -> ()
      "tlir.terminator"() {kConfigured = true, kUniqueId = 7 : i64} : () -> ()
    }) {kConfigured = true, kNodeCategory = 1 : i64, sym_name = "add_lambda2", type = () -> ()} : () -> ()
    "air.Lambda"() ( {
      %0 = "air.lambda.input"() {kConfigured = true, kId = 0 : i64, kNodeCategory = 1 : i64} : () -> tensor<1x16x768xbf16>
      %1 = "air.lambda.input"() {kConfigured = true, kId = 1 : i64, kNodeCategory = 1 : i64} : () -> tensor<1x16x768xbf16>
      %2 = "air.Imm"() {kConfigured = true, kNodeCategory = 1 : i64, kValue = "1.000000"} : () -> tensor<1xbf16>
      %3 = "air.Mul"(%1, %2) {kBinaryOp = true, kConfigured = true, kNodeCategory = 1 : i64} : (tensor<1x16x768xbf16>, tensor<1xbf16>) -> tensor<1x16x768xbf16>
      %4 = "air.Add"(%0, %3) {kBinaryOp = true, kConfigured = true, kNodeCategory = 1 : i64} : (tensor<1x16x768xbf16>, tensor<1x16x768xbf16>) -> tensor<1x16x768xbf16>
      "air.lambda.output"(%4) {kConfigured = true, kId = 0 : i64, kNodeCategory = 1 : i64} : (tensor<1x16x768xbf16>) -> ()
      "tlir.terminator"() {kConfigured = true, kUniqueId = 7 : i64} : () -> ()
    }) {kConfigured = true, kNodeCategory = 1 : i64, sym_name = "add_lambda1", type = () -> ()} : () -> ()
  }
  module @sections  {
    %0 = "air.Tensor"() {kConfigured = true, kIsWeight = false, kNodeCategory = 5 : i64} : () -> tensor<16x768xbf16>
    %1 = "air.Reshape"(%0) {kConfigured = true, kNodeCategory = 1 : i64} : (tensor<16x768xbf16>) -> tensor<1x16x768xbf16>
    %2 = "air.Tensor"() {kConfigured = true, kIsWeight = false, kNodeCategory = 5 : i64} : () -> tensor<16x768xbf16>
    %3 = "air.Reshape"(%2) {kConfigured = true, kNodeCategory = 1 : i64} : (tensor<16x768xbf16>) -> tensor<1x16x768xbf16>
    %4 = "air.Collect"(%1, %3) {kConfigured = true, kLambda = @add_lambda1, kMacInfoName = "collect_default", kNodeCategory = 1 : i64} : (tensor<1x16x768xbf16>, tensor<1x16x768xbf16>) -> tensor<1x16x768xbf16>
    %5 = "air.Tensor"() {kConfigured = true, kIsWeight = false, kNodeCategory = 5 : i64} : () -> tensor<16x768xbf16>
    %6 = "air.Reshape"(%5) {kConfigured = true, kNodeCategory = 1 : i64} : (tensor<16x768xbf16>) -> tensor<1x16x768xbf16>
…
    %73 = "air.Softmax"(%72) {kConfigured = true, kDim = 2 : i64, kNodeCategory = 1 : i64} : (tensor<1x16x30522xbf16>) -> tensor<1x16x30522xbf16>
    "air.Output"(%6) {kConfigured = true, kNodeCategory = 5 : i64} : (tensor<1x16x12x64xbf16>) -> ()
    "air.Output"(%18) {kConfigured = true, kNodeCategory = 5 : i64} : (tensor<1x16x768xbf16>) -> ()
    "air.Output"(%23) {kConfigured = true, kNodeCategory = 5 : i64} : (tensor<1x16x768xbf16>) -> ()
    "air.Output"(%31) {kConfigured = true, kNodeCategory = 5 : i64} : (tensor<16x3072xbf16>) -> ()
    "air.Output"(%33) {kConfigured = true, kNodeCategory = 5 : i64} : (tensor<1x16x3072xbf16>) -> ()
    "air.Output"(%43) {kConfigured = true, kNodeCategory = 5 : i64} : (tensor<1x16x768xbf16>) -> ()
    "air.Output"(%48) {kConfigured = true, kNodeCategory = 5 : i64} : (tensor<1x16x768xbf16>) -> ()
    "air.Output"(%56) {kConfigured = true, kNodeCategory = 5 : i64} : (tensor<16x768xbf16>) -> ()
    "air.Output"(%58) {kConfigured = true, kNodeCategory = 5 : i64} : (tensor<1x16x768xbf16>) -> ()
    "air.Output"(%63) {kConfigured = true, kNodeCategory = 5 : i64} : (tensor<1x16x768xbf16>) -> ()
    "air.Output"(%71) {kConfigured = true, kNodeCategory = 5 : i64} : (tensor<16x30522xbf16>) -> ()
    "air.Output"(%73) {kConfigured = true, kNodeCategory = 5 : i64} : (tensor<1x16x30522xbf16>) -> ()
  }
  module @schedule  {
  }
  module @rnn_function  {
  }
}
[JITPerf] force_evaluate::PopulateMeta 309991 ns
[compiler:info] ====== HASH INFO: e7f6b0b2a11912dec0d5947899df3366bbb56913497c209272e84af63316104e
[mac:warn] name collision detected for input_0
[mac:warn] name collision detected for input_1
[mac:warn] name collision detected for input_2
[mac:warn] name collision detected for air_Matmul_0
[mac:warn] name collision detected for air_Reshape_0
[mac:warn] name collision detected for Permute_1
[mac:warn] name collision detected for Permute_1
[mac:warn] name collision detected for air_BroadcastInDim_0
[mac:warn] name collision detected for air_Reshape_1
[mac:warn] name collision detected for air_Reshape_2
[mac:warn] name collision detected for input_3
[mac:warn] name collision detected for Permute_0
[mac:warn] name collision detected for Permute_0
[mac:warn] name collision detected for air_Matmul_1
[mac:warn] name collision detected for air_Reshape_3
[mac:warn] name collision detected for input_4
[mac:warn] name collision detected for air_Collect_0
[mac:warn] name collision detected for air_Collect_0_unary
[mac:warn] name collision detected for air_Collect_0_binary1
[mac:warn] name collision detected for air_Reshape_4
[mac:warn] name collision detected for air_Reshape_5
[mac:warn] name collision detected for input_5
[mac:warn] name collision detected for air_Collect_1
[mac:warn] name collision detected for air_Collect_1_unary
[mac:warn] name collision detected for air_Collect_1_binary1
[mac:warn] name collision detected for input_6
[mac:warn] name collision detected for input_7
[mac:warn] name collision detected for air_Reshape_6
[mac:warn] name collision detected for air_Reshape_7
[mac:warn] name collision detected for air_LayerNorm_0
[mac:warn] name collision detected for air_Reshape_8
[mac:warn] name collision detected for input_8
[mac:warn] name collision detected for Permute_0
[mac:warn] name collision detected for Permute_0
[mac:warn] name collision detected for air_Matmul_2
[mac:warn] name collision detected for air_Reshape_9
[mac:warn] name collision detected for input_9
[mac:warn] name collision detected for air_Collect_2
[mac:warn] name collision detected for air_Collect_2_unary
[mac:warn] name collision detected for air_Collect_2_binary1
[mac:warn] name collision detected for air_Reshape_10
[mac:warn] name collision detected for air_Reshape_11
[mac:warn] name collision detected for air_Gelu_0
[mac:warn] name collision detected for air_Reshape_12
[mac:warn] name collision detected for input_10
[mac:warn] name collision detected for Permute_0
[mac:warn] name collision detected for Permute_0
[mac:warn] name collision detected for air_Matmul_3
[mac:warn] name collision detected for air_Reshape_13
[mac:warn] name collision detected for input_11
[mac:warn] name collision detected for air_Collect_3
[mac:warn] name collision detected for air_Collect_3_unary
[mac:warn] name collision detected for air_Collect_3_binary1
[mac:warn] name collision detected for air_Reshape_14
[mac:warn] name collision detected for air_Reshape_15
[mac:warn] name collision detected for air_Collect_4
[mac:warn] name collision detected for air_Collect_4_unary
[mac:warn] name collision detected for air_Collect_4_binary1
[mac:warn] name collision detected for input_12
[mac:warn] name collision detected for input_13
[mac:warn] name collision detected for air_Reshape_16
[mac:warn] name collision detected for air_Reshape_17
[mac:warn] name collision detected for air_LayerNorm_1
[mac:warn] name collision detected for air_Reshape_18
[mac:warn] name collision detected for input_14
[mac:warn] name collision detected for Permute_0
[mac:warn] name collision detected for Permute_0
[mac:warn] name collision detected for air_Matmul_4
[mac:warn] name collision detected for air_Reshape_19
[mac:warn] name collision detected for input_15
[mac:warn] name collision detected for air_Collect_5
[mac:warn] name collision detected for air_Collect_5_unary
[mac:warn] name collision detected for air_Collect_5_binary1
[mac:warn] name collision detected for air_Reshape_20
[mac:warn] name collision detected for air_Reshape_21
[mac:warn] name collision detected for input_16
[mac:warn] name collision detected for input_17
[mac:warn] name collision detected for air_Reshape_22
[mac:warn] name collision detected for air_Reshape_23
[mac:warn] name collision detected for air_Reshape_24
[mac:warn] name collision detected for input_18
[mac:warn] name collision detected for Permute_0
[mac:warn] name collision detected for Permute_0
[mac:warn] name collision detected for air_Matmul_5
[mac:warn] name collision detected for air_Reshape_25
[mac:warn] name collision detected for input_19
[mac:warn] name collision detected for air_Collect_6
[mac:warn] name collision detected for air_Collect_6_unary
[mac:warn] name collision detected for air_Collect_6_binary1
[mac:warn] name collision detected for air_Reshape_26
[mac:warn] name collision detected for air_Softmax_0
[mac:warn] name collision detected for air_Output_0
[mac:warn] name collision detected for air_Output_1
[mac:warn] name collision detected for air_Output_2
[mac:warn] name collision detected for air_Output_3
[mac:warn] name collision detected for air_Output_4
[mac:warn] name collision detected for air_Output_5
[mac:warn] name collision detected for air_Output_6
[mac:warn] name collision detected for air_Output_7
[mac:warn] name collision detected for air_Output_8
[mac:warn] name collision detected for air_Output_9
Updated RegionView start borders for 0 slice groups.
Updated RegionView start borders for 0 slice groups.
Updated RegionView start borders for 0 slice groups.
Updated RegionView start borders for 0 slice groups.
MAC575_AIRResourceAwarePeepholeOptIter converged after 2 iteration(s)
Updated RegionView start borders for 0 slice groups.
Updated RegionView start borders for 0 slice groups.
Updated RegionView start borders for 0 slice groups.
Updated RegionView start borders for 0 slice groups.
Updated RegionView start borders for 0 slice groups.
Updated RegionView start borders for 0 slice groups.
MAC582_AIRToTLIRLoweringNestedLoopsIter converged after 2 iteration(s)
Updated RegionView start borders for 0 slice groups.
Updated RegionView start borders for 0 slice groups.
Updated RegionView start borders for 0 slice groups.
Updated RegionView start borders for 0 slice groups.
[mac:warn] Copy.cpp:163:0: [AIRToTLIRLowering] Precog Interjected: Converted TemporalConcat to use TBuffer.
[info    ] Total per-section passes: 77
[info    ] Removed artifact file: /scratch/jobs/38941840/jit_out/jit_out.s0.utilization_report.txt
[info    ] Removed artifact file: /scratch/jobs/38941840/jit_out/stage_buffers/partition_latency_0_0.dot
[info    ] Removed artifact file: /scratch/jobs/38941840/jit_out/jit_out_0_0_tln_traffic_report.txt
[info    ] Removed artifact file: /scratch/jobs/38941840/jit_out/jit_out_0_0_bandwidth_statistics.txt
[info    ] Removed artifact file: /scratch/jobs/38941840/jit_out/jit_out_0_0_bandwidth_statistics.csv
[info    ] Removed artifact file: /scratch/jobs/38941840/jit_out/jit_out_0_0.node_statistics.csv
[info    ] Removed artifact file: /scratch/jobs/38941840/jit_out/jit_out_0_0.detailed_pmu_statistics.csv
[info    ] Removed artifact file: /scratch/jobs/38941840/jit_out/jit_out_0_0.detailed_pcu_statistics.csv
[info    ] Removed artifact file: /scratch/jobs/38941840/jit_out/jit_out_0_0.template_names.csv
[info    ] Removed artifact file: /scratch/jobs/38941840/jit_out/jit_out.data
[info    ] Compiling graph for section 0
[mac:info] Building nameddims for graph jit_out
[mac:info] Analyze tiling for graph: jit_out
[mac:info] Mapping for graph jit_out
[mac:info] Set up stage ID and metapipe ID for section 1
[mac:info] Set up stage ID and metapipe ID for section 0
[mac:info] MAC decided on the following section cuts for graph jit_out
[mac:info] Amortized resources overall: 1.730000e+02 PCUs, 1.770000e+02 PMUs, projected latency: 1.210950e-03 s, FLOPS: 7.802993e-01 T/s, DDR_BW: 4.778930e+01 GB/s
[mac:info] Lowering to TLIR succeeded.
[rail:info] Logs are generated in /scratch/jobs/38941840/jit_out//rail_gen//rail_compile_logs for partition_0_0_.
[rail:warn] PrismInfo.cpp:1056:0: TComputeContext: zipmapreduce_tcomp may have wrong behavior with respect to datatype width since stage0 ALU is not programmed.
[rail:info] Compilation succeeded for partition_0_0_. Elapsed time:  1060ms
[info    ] Compiling graph for section 1
[rail:info] Logs are generated in /scratch/jobs/38941840/jit_out//rail_gen//rail_compile_logs for partition_1_0_.
[rail:info] Compilation succeeded for partition_1_0_. Elapsed time:  0ms
[info    ] [PASS] Running PRISM000_PreProcessPass0_1
[info    ] Generated utilization report file: /scratch/jobs/38941840/jit_out/jit_out.s0.utilization_report.txt
[info    ] Generated utilization report file: /scratch/jobs/38941840/jit_out/jit_out.s1.utilization_report.txt
[info    ] [PASS] Running PRISM001_FeedbackGenPass0_1
[info    ] [PASS] Running PRISM002_PlasmaIRPass0_1
[compiler:info] Starting Plasma compile at /scratch/jobs/38941840/jit_out/plasma_ir_modules/sections_0_1
[compiler:info] Plasma compile succeeded.
[compiler:info] Starting Plasma compile at /scratch/jobs/38941840/jit_out/plasma_ir_modules/schedule_0_1
[compiler:info] Plasma compile succeeded.
[info    ] [PASS] Running PRISM003_PlasmaIRSymbolAllocExportPass0_1
[info    ] [PASS] Running PRISM004_LegalizeUtilizationPass0_1
[info    ] [PASS] Running PRISM005_LegalizeSocketConnectionsPass0_1
[info    ] [PASS] Running PRISM006_LayoutConsolidationPass0_1
[info    ] [PASS] Running PRISM007_PmuLoadStoreSetupPass0_1
[info    ] [PASS] Running PRISM008_FinalizeIoPass0_1
[info    ] [PASS] Running PRISM009_CollectConnectionPass0_1
[info    ] [PASS] Running PRISM010_NetworkValidationPass0_1
[info    ] [PASS] Running PRISM011_DramAnalyticalReportPass0_1
[warning ] [../prism/src/plasma/lib/Core/Unit/Agcu.cpp:2506] Large dram analysis difference: num_vector_with_request_length_overhead 15728640 num_vector_without_request_length_overhead 1966080 reference_num_vector 732528
[warning ] [../prism/src/plasma/lib/Core/Unit/Agcu.cpp:2506] Large dram analysis difference: num_vector_with_request_length_overhead 15728640 num_vector_without_request_length_overhead 1966080 reference_num_vector 732528
[warning ] [../prism/src/plasma/lib/Core/Unit/Agcu.cpp:2506] Large dram analysis difference: num_vector_with_request_length_overhead 1536 num_vector_without_request_length_overhead 384 reference_num_vector 384
[warning ] [../prism/src/plasma/lib/Core/Unit/Agcu.cpp:2506] Large dram analysis difference: num_vector_with_request_length_overhead 1536 num_vector_without_request_length_overhead 384 reference_num_vector 384
[info    ] Logging dram analysis report to /scratch/jobs/38941840/jit_out/prism_gen/reports/dram_analysis.json
[info    ] [PASS] Running PRISM012_AsmIRGenPNRConnectPass0_1
[info    ] [PASS] Running PRISM013_PrintLoweringPass0_1
[info    ] [PASS] Running PRISM014_AsmIRResourceAllocationPass0_1
[info    ] [PASS] Running PRISM015_PmuExprCompilePass0_1
[info    ] [PASS] Running PRISM016_GroupAnnotationPass0_1
[info    ] [PASS] Running PRISM017_TemplateDataflowGraphPass0_1
[info    ] [PASS] Running PRISM018_BoxUtilizationLegalizerPass0_1
[info    ] [PASS] Running PRISM019_LegalizePartitionAssignmentPass0_1
[info    ] [PASS] Running PRISM020_ConditionValidationPass0_1
[info    ] [PASS] Running PRISM021_AssignMetapipeStagePass0_1
[info    ] [PASS] Running PRISM022_AnalyticalModelFileGenPass0_1
[info    ] [PASS] Running PRISM023_PlasmaIRProgramStatePass0_1
[info    ] [PASS] Running PRISM024_MetapipeStageLatencyPass0_1
[warning ] [../prism/src/plasma/lib/Core/Traversal/Analysis/MetapipeStageLatencyPass.cpp:635] Stage 76: Encountered gemm-like template BigGemm (biggemm_0_0_388) after streaming template Gelu (gelu_0_0_385), but gemm-like templates may only be adjacent to buffers!
[info    ] Generated metapipe stage graph dot file: /scratch/jobs/38941840/jit_out/stage_buffers/partition_latency_0_0.dot
[info    ] Generated metapipe stage graph dot file: /scratch/jobs/38941840/jit_out/stage_buffers/partition_latency_1_0.dot
[info    ] [PASS] Running PRISM025_MetapipeStageGraphPass0_1
[info    ] [PASS] Running PRISM026_BandwidthAnnotationPass0_1
[info    ] BandwidthAnnotationPropagation log for Partition{0, 0}: /scratch/jobs/38941840/jit_out/prism_gen/plasma_compile_logs/PRISM026_BandwidthAnnotationPass0_1.BWP.0.0.log
[info    ] BandwidthAnnotationPropagation log for Partition{0, 0}: /scratch/jobs/38941840/jit_out/prism_gen/plasma_compile_logs/PRISM026_BandwidthAnnotationPass0_1.BWP.0.0.log
[info    ] BandwidthAnnotationPropagation log for Partition{0, 1}: /scratch/jobs/38941840/jit_out/prism_gen/plasma_compile_logs/PRISM026_BandwidthAnnotationPass0_1.BWP.0.1.log
[info    ] 

============ Bandwidth QA Report ============

Total edges: 555
Bandwidth starving edges before pass (src/sink < 0.8): 132 (23.7838%)
Bandwidth back pressure edges before pass (src/sink > 1.2): 129 (23.2432%)
Missing source bandwidth after pass: 0 (0%)
Missing sink bandwidth after pass: 0 (0%)

[info    ] [PASS] Running PRISM027_FilePlacementPass_GenEdgeId0_1
[info    ] [PASS] Running PRISM028_FloorplanPass0_1
[info    ] Floorplanning log for Partition{0, 0}: /scratch/jobs/38941840/jit_out/prism_gen/plasma_compile_logs/PRISM028_FloorplanPass0_1.FP.0.0.log
[info    ] Floorplanning log for Partition{0, 1}: /scratch/jobs/38941840/jit_out/prism_gen/plasma_compile_logs/PRISM028_FloorplanPass0_1.FP.0.1.log
[info    ] [PASS] Running PRISM029_VagAllocPass0_1
[info    ] [PASS] Running PRISM030_AsmIRPrePortAllocAsmTransformPass0_1
[info    ] [PASS MANAGER] Start PnR
[info    ] [PASS] Running PRISM031_PlacerPass0_1
[info    ] Prism config stored in: /scratch/jobs/38941840/jit_out/jit_out.configs
[info    ] Launching placement flow with (set) 1 threads
[info    ] BoxPlanner log for Partition{0, 0}: /scratch/jobs/38941840/jit_out/prism_gen/plasma_compile_logs/PRISM031_PlacerPass0_1.BP.0.0.log
[info    ] WavefrontPlacer log for Partition{0, 0}: /scratch/jobs/38941840/jit_out/prism_gen/plasma_compile_logs/PRISM031_PlacerPass0_1.DFG.0.0.log
[info    ] SAPlacer log for Partition{0, 0}: /scratch/jobs/38941840/jit_out/prism_gen/plasma_compile_logs/PRISM031_PlacerPass0_1.SA.0.0.log
[info    ] BoxPlanner log for Partition{0, 1}: /scratch/jobs/38941840/jit_out/prism_gen/plasma_compile_logs/PRISM031_PlacerPass0_1.BP.0.1.log
[info    ] WavefrontPlacer log for Partition{0, 1}: /scratch/jobs/38941840/jit_out/prism_gen/plasma_compile_logs/PRISM031_PlacerPass0_1.DFG.0.1.log
[info    ] SAPlacer log for Partition{0, 1}: /scratch/jobs/38941840/jit_out/prism_gen/plasma_compile_logs/PRISM031_PlacerPass0_1.SA.0.1.log
[info    ] Placement runtime:	partition{0, 0}: 0s	partition{0, 1}: 0s	
[info    ] [PASS] Running PRISM032_PmuTwinPass0_1
[info    ] [PASS] Running PRISM033_TemplateTileDoneLoweringPass0_1
[info    ] [PASS] Running PRISM034_VagConfigurePass0_1
[info    ] [PASS] Running PRISM035_VagAllocReportPass0_1
[warning ] [../prism/src/plasma/lib/Core/Traversal/Analysis/VagAllocReportPass.cpp:104] Found multiple batchsizes in input for timing group: ExecGroup batchsize: 24 vs 6
[warning ] [../prism/src/plasma/lib/Core/Traversal/Analysis/VagAllocReportPass.cpp:104] Found multiple batchsizes in input for timing group: ExecGroup batchsize: 24 vs 12
[warning ] [../prism/src/plasma/lib/Core/Traversal/Analysis/VagAllocReportPass.cpp:104] Found multiple batchsizes in input for timing group: ExecGroup batchsize: 24 vs 12
[info    ] [PASS] Running PRISM036_DataPortAllocatorPass0_1
[info    ] [PASS] Running PRISM037_AgcuOrchestrationPass0_1
[info    ] [PASS] Running PRISM038_RampControlPass0_1
[info    ] [PASS] Running PRISM039_E2EInjectionPass0_1
[info    ] [PASS] Running PRISM040_InstrumentationPreprocessPass0_1
[info    ] [PASS] Running PRISM041_BarrierLoweringPass0_1
[info    ] [PASS] Running PRISM042_ControlPortAllocatorPass0_1
[info    ] [PASS] Running PRISM043_ControlBandwidthAnnotationPass0_1
[info    ] [PASS] Running PRISM044_InstrumentationCounterPass0_1
[info    ] [PASS] Running PRISM045_ControlPortAllocatorPass0_1
[info    ] [PASS] Running PRISM046_ControlConnectorPass0_1
[info    ] [PASS] Running PRISM047_DataConnectorPass0_1
[info    ] [PASS MANAGER] Done with PnR
[info    ] [PASS] Running PRISM048_BandwidthReportPass0_1
[info    ] BandwidthReport log for Partition{0, 0}: /scratch/jobs/38941840/jit_out/prism_gen/plasma_compile_logs/PRISM048_BandwidthReportPass0_1.VECTOR.0.0.log
[info    ] BandwidthReport log for Partition{0, 0}: /scratch/jobs/38941840/jit_out/prism_gen/plasma_compile_logs/PRISM048_BandwidthReportPass0_1.SCALAR.0.0.log
[info    ] BandwidthReport log for Partition{0, 1}: /scratch/jobs/38941840/jit_out/prism_gen/plasma_compile_logs/PRISM048_BandwidthReportPass0_1.VECTOR.0.1.log
[info    ] BandwidthReport log for Partition{0, 1}: /scratch/jobs/38941840/jit_out/prism_gen/plasma_compile_logs/PRISM048_BandwidthReportPass0_1.SCALAR.0.1.log
[info    ] [PASS] Running PRISM049_FeedbackGenPass0_1
[info    ] [PASS] Running PRISM050_ControlConnectionCodegenPass0_1
[info    ] [PASS] Running PRISM051_DataConnectionCodegenPass0_1
[info    ] [PASS] Running PRISM052_FinalizePass0_1
[info    ] [PASS] Running PRISM053_FinalizeSnapshotPass0_1
[info    ] [PASS] Running PRISM054_VagExprCompilePass0_1
[info    ] [PASS] Running PRISM055_WatermarkPass0_1
[info    ] [PASS] Running PRISM056_OrphanUnitPass0_1
[info    ] [PASS] Running PRISM057_BoxFileGenPass0_1
[info    ] [PASS] Running PRISM058_P2pPass0_1
[info    ] [PASS] Running PRISM059_AsmIRPostPortAllocAsmTransformPass0_1
[info    ] [PASS] Running PRISM060_DataSocketAnnotationPass0_1
[info    ] [PASS] Running PRISM061_AuroraFileGenPass0_1
[info    ] [PASS] Running PRISM062_AsmLegalizerPass0_1
[info    ] [PASS] Running PRISM063_ExpectedPacketCountAnnotationPass0_1
[warning ] [../prism/src/plasma/lib/Core/Traversal/Analysis/ExpectedPacketCountAnnotationPass.cpp:188] [Assembler] No counter chains found in streaming context, unable to determine expected_packet_count in gelu_0_0_385_output ctx0
[error   ] [../prism/src/plasma/lib/Core/Traversal/Analysis/ExpectedPacketCountAnnotationPass.cpp:284] [Assembler] multiple counter chains found in streaming context, unable to determine expected_packet_count in biggemm_0_0_388_gemm_0_0_0_PCU ctx0
[error   ] [../prism/src/plasma/lib/Core/Traversal/Analysis/ExpectedPacketCountAnnotationPass.cpp:284] [Assembler] multiple counter chains found in streaming context, unable to determine expected_packet_count in biggemm_0_0_388_gemm_0_0_1_PCU ctx0
[error   ] [../prism/src/plasma/lib/Core/Traversal/Analysis/ExpectedPacketCountAnnotationPass.cpp:284] [Assembler] multiple counter chains found in streaming context, unable to determine expected_packet_count in biggemm_0_0_388_gemm_0_0_2_PCU ctx0
[warning ] [../prism/src/plasma/lib/Core/Traversal/Analysis/ExpectedPacketCountAnnotationPass.cpp:188] [Assembler] No counter chains found in streaming context, unable to determine expected_packet_count in gelu_0_0_408_output ctx0
[info    ] [PASS] Running PRISM064_ConnectionPatchPass0_1
[info    ] [PASS] Running PRISM065_AsmPlasticineCodegen0_1
[warning ] [../prism/src/assembler/lib/Codegen/PmuCodegen.cpp:6384] JitOut.partition_0_0_.rbuf1a_0_0_184_D_0_0 rd0_0 forcing early done for send insn: send CtrlPortOut(0) L0.early()  where asm would have chosen a late done for CH-1223
[warning ] [../prism/src/assembler/lib/Codegen/PmuCodegen.cpp:6384] JitOut.partition_0_0_.rbuf1a_0_0_207_D_0_0 rd0_0 forcing early done for send insn: send CtrlPortOut(0) L0.early()  where asm would have chosen a late done for CH-1223
[warning ] [../prism/src/assembler/lib/Codegen/PmuCodegen.cpp:6384] JitOut.partition_0_0_.rbuf1a_0_0_240_D_0_0 rd0_0 forcing early done for send insn: send CtrlPortOut(15) L0.early()  where asm would have chosen a late done for CH-1223
[warning ] [../prism/src/assembler/lib/Codegen/PmuCodegen.cpp:6592] input_18_0_0_325_tilerFronting_pmu rd0_0 asm CtlOutXbar value (5) differs from set_signal (2)
[warning ] [../prism/src/assembler/lib/Codegen/PmuCodegen.cpp:6592] air_Collect0_used_by_air_Softmax_1_0_326_tilerFronting_pmu rd0_0 asm CtlOutXbar value (5) differs from set_signal (2)
[info    ] [PASS] Running PRISM066_ConnectionPatchPass0_1
[info    ] [PASS] Running PRISM067_PrintAsmPass_post_codegen0_1
[info    ] [PASS] Running PRISM068_PrintAsmPass_asm_ir_report0_1
[warning ] [../prism/src/plasma/lib/Core/Traversal/Analysis/RouteReportPass.cpp:34] Old report is not removed: /scratch/jobs/38941840/jit_out/jit_out_0_1.routes_report.txt
[info    ] [PASS] Running PRISM069_RouteReportPass0_1
[info    ] [PASS] Running PRISM070_AgcuFileGenPass0_1
[info    ] [PASS] Running PRISM071_CheckerPass0_1
[info    ] [PASS] Running PRISM072_ArgInsPass0_1
[info    ] [PASS] Running PRISM073_BitfileGenPass0_1
[info    ] bitfile /scratch/jobs/38941840/jit_out/jit_out.0.0.bin created
[info    ] bitfile /scratch/jobs/38941840/jit_out/jit_out.0.1.bin created
[info    ] [PASS] Running PRISM074_UtilizationFileGenPass0_1
[info    ] [PASS] Running PRISM075_PmuStatsPass0_1
[info    ] PMUStats: Writing /scratch/jobs/38941840/jit_out/jit_out_0_1.pmu_stat_info.csv
[info    ] PMUStats: Writing /scratch/jobs/38941840/jit_out/jit_out_0_1.pmu_stat_ctx_info.csv
[info    ] [PASS] Running PRISM076_PostProcessSectionsPass0_1
[info    ] Freeing memory for compilation phase 0__1
[info    ] Incremental Passes for Section(s) 0__1 Completed.
[info    ] Incremental Passes Completed.
[info    ] [PASS] Running PRISM077_SymInitFunctionsPass
[info    ] [PASS] Running PRISM078_DataAllocPass
[info    ] [PASS] Running PRISM079_HostFifoPass
[info    ] [PASS] Running PRISM080_HostFunctionPass
[info    ] [PASS] Running PRISM081_DebugFileGenPass
[info    ] [PASS] Running PRISM082_PefGenPass
[info    ] symbol log file /scratch/jobs/38941840/jit_out/jit_out.symbol.log created
[info    ] PEF file /scratch/jobs/38941840/jit_out/jit_out.pef created
[info    ] PEF log file /scratch/jobs/38941840/jit_out/jit_out.pef.log created
[info    ] [PASS] Running PRISM083_DatafileGenPass
[info    ] datafile /scratch/jobs/38941840/jit_out/jit_out.data created
[info    ] Data log file /scratch/jobs/38941840/jit_out/jit_out.data.log created
[info    ] PnR node feedback file created /scratch/jobs/38941840/jit_out/jit_out.node_feedback.json
[info    ] PnR partition feedback file created /scratch/jobs/38941840/jit_out/jit_out.partition_feedback.json
[info    ] Global Passes Completed.
[arc:info] Generated debug_cpp files placed in: /scratch/jobs/38941840/jit_out/imcg_cpp/arc_gen/
[arc:info] Generated files placed in: /scratch/jobs/38941840/jit_out/arc_gen/
[arc:info] Compilation succeeded.
[mac:info] Mac Compilation succeeded.
[compiler:info] copy pef /scratch/jobs/38941840/jit_out/jit_out.pef to /scratch/jobs/38941840/jit_out/jit_out.6.pef
[compiler:info] Successfully compiled pef at /scratch/jobs/38941840/jit_out/jit_out.pef
[JITPerf] force_evaluate::CompilePEF 16914783542 ns
[JITPerf] force_evaluate::FilterInputs 93300 ns
Log ID initialized to: [surajk][python][237584] at /var/log/sambaflow/runtime/sn.log
[JITPerf] force_evaluate::Runtime 414346434 ns
[compiler:info] ============ PEF run finished and get tensors ========
[compiler:info] [torch_rdu] Copy from: 0x55c8a6b0b490 to: 0x55c8a6ecee50
[compiler:info]   Source: 1953408 bytes with name  0x55c8a7f68740
[compiler:info]   Dest: 1953408 bytes with name  0x0
[JITPerf] &JIT::construct 280 ns
[compiler:info] [torch_rdu] Copy from: 0x55c8a7fd94d0 to: 0x55c8a9edffb0
[compiler:info]   Source: 1953408 bytes with name  0x55c8a7135d20
[compiler:info]   Dest: 1953408 bytes with name  0x0
[JITPerf] &JIT::construct 190 ns
[compiler:info] [torch_rdu] Copy from: 0x55c8a7fd94d0 to: 0x55c8a5610b50
[compiler:info]   Source: 1953408 bytes with name  0x55c8a7135d20
[compiler:info]   Dest: 1953408 bytes with name  0x0
[JITPerf] &JIT::construct 200 ns
CPU Elapsed time  0.0615 seconds
RDU Elapsed time  23.0711 seconds
Total mismatches over threshold: 2835 out of 488352
Worst data mismatches: Actual(#1): tensor([ 0.0039,  0.0029, -0.0020, -0.0039, -0.0088,  0.0010,  0.0127,  0.0322,
        -0.0034,  0.0547], grad_fn=<IndexBackward0>), Expected(#2): tensor([ 0.2332, -0.2116, -0.2057,  0.1916, -0.2177, -0.1746, -0.2000, -0.2064,
         0.1449,  0.3451], grad_fn=<IndexBackward0>), 
Avg relative difference is 1.8288794026900677%, 
Worst abs difference: 0.290423184633255, worst rel diff: 199.02383089065552%
Tensor_0: 

CPU:
tensor([[[ -6.6462,  -6.6775,  -6.6606,  ...,  -5.9660,  -5.7844,  -4.1951],
         [-14.7222, -15.2151, -15.0513,  ..., -13.5289, -11.3960, -14.5610],
         [-10.1223, -10.7297, -10.1163,  ...,  -9.2822,  -7.6954, -15.4930],
         ...,
         [-10.7090, -11.2617, -10.9946,  ...,  -8.4994,  -9.6521, -14.2806],
         [-12.2987, -12.0131, -12.5270,  ..., -10.8341, -11.2091,  -5.0134],
         [-12.7292, -13.4996, -13.1655,  ..., -13.2183, -10.6310, -12.8908]]],
       grad_fn=<AddBackward0>)

RDU:
tensor([[[ -6.5938,  -6.6250,  -6.5625,  ...,  -5.9062,  -5.7500,  -4.1875],
         [-14.5625, -15.0000, -14.9375,  ..., -13.6250, -11.1250, -14.3750],
         [ -9.9375, -10.4375,  -9.9375,  ...,  -9.1250,  -7.5625, -15.1250],
         ...,
         [-10.5625, -11.1250, -11.0000,  ...,  -8.3750,  -9.3750, -14.2500],
         [-12.0625, -11.8750, -12.4375,  ..., -10.8125, -11.1250,  -5.0625],
         [-12.5625, -13.3750, -12.8750,  ..., -13.0000, -10.5000, -12.7500]]],
       grad_fn=<ToCopyBackward0>)
Tensor_1: 

CPU:
tensor([[[4.6513e-07, 4.5077e-07, 4.5846e-07,  ..., 9.1823e-07,
          1.1012e-06, 5.3960e-06],
         [8.9595e-16, 5.4728e-16, 6.4474e-16,  ..., 2.9549e-15,
          2.4936e-14, 1.0527e-15],
         [5.1252e-14, 2.7920e-14, 5.1564e-14,  ..., 1.1873e-13,
          5.8038e-13, 2.3837e-16],
         ...,
         [9.6592e-15, 5.5576e-15, 7.2593e-15,  ..., 8.8010e-14,
          2.7794e-14, 2.7154e-16],
         [5.2247e-17, 6.9513e-17, 4.1581e-17,  ..., 2.2601e-16,
          1.5532e-16, 7.6212e-14],
         [6.5715e-10, 3.0415e-10, 4.2482e-10,  ..., 4.0294e-10,
          5.3571e-09, 5.5908e-10]]], grad_fn=<SoftmaxBackward0>)

RDU:
tensor([[[4.7125e-07, 4.7125e-07, 5.0291e-07,  ..., 9.9838e-07,
          1.1325e-06, 5.3942e-06],
         [1.0408e-15, 6.3144e-16, 8.1185e-16,  ..., 2.8311e-15,
          3.4417e-14, 1.3392e-15],
         [7.2831e-14, 4.4187e-14, 7.2831e-14,  ..., 1.5454e-13,
          6.9278e-13, 3.8337e-16],
         ...,
         [1.2657e-14, 7.7161e-15, 7.7161e-15,  ..., 1.0614e-13,
          3.9080e-14, 2.9837e-16],
         [1.0972e-16, 1.4051e-16, 6.6787e-17,  ..., 3.8337e-16,
          2.3245e-16, 1.1990e-13],
         [7.3487e-10, 3.4743e-10, 5.7116e-10,  ..., 5.0568e-10,
          6.1700e-09, 6.4756e-10]]], grad_fn=<ToCopyBackward0>)
Compile count: 38
[JITPerf] &JIT::construct 80 ns
Pef count: 7
==========================================
RDU: The capital of France, paris, contains the Eiffel Tower.	|	CPU: The capital of France, paris, contains the Eiffel Tower.
RDU: The capital of France, lyon, contains the Eiffel Tower.	|	CPU: The capital of France, lyon, contains the Eiffel Tower.
RDU: The capital of France, lille, contains the Eiffel Tower.	|	CPU: The capital of France, lille, contains the Eiffel Tower.
RDU: The capital of France, marseille, contains the Eiffel Tower.	|	CPU: The capital of France, toulouse, contains the Eiffel Tower.
RDU: The capital of France, toulouse, contains the Eiffel Tower.	|	CPU: The capital of France, marseille, contains the Eiffel Tower.
==========================================
++ cat /proc/237582/cgroup
++ grep -oP '^.*:memory:\K.*$'
+ cat /sys/fs/cgroup/memory//slurm/uid_1447851142/job_38941840/step_batch/task_0/memory.max_usage_in_bytes
+ grep --text -oP 'slurmJobId=38941840.*Physical RDU ID: \K\d+' /var/log/sambaflow/runtime/sn.log
+ true
<181>2022-07-11T00:53:10.191987-07:00 sc2-s5 [surajk][python][237584]: [NOTICE][RSC][meta hostname=sc2-s5.sambanovasystems.com tid=237584 slurmJobId=38941840] Resource Status: Allocation Success
<181>2022-07-11T00:53:10.267878-07:00 sc2-s5 [surajk][python][237584]: [NOTICE][RSC][meta hostname=sc2-s5.sambanovasystems.com tid=237584 slurmJobId=38941840] grdu_mask: 0
<181>2022-07-11T00:53:10.268059-07:00 sc2-s5 [surajk][python][237584]: [NOTICE][RSC][meta hostname=sc2-s5.sambanovasystems.com tid=237584 slurmJobId=38941840] Physical RDU 0
<181>2022-07-11T00:53:14.263705-07:00 sc2-s5 [surajk][python][237584]: [NOTICE][RSC][meta hostname=sc2-s5.sambanovasystems.com tid=237584 slurmJobId=38941840] Resource Status: Allocation Success
<181>2022-07-11T00:53:14.337227-07:00 sc2-s5 [surajk][python][237584]: [NOTICE][RSC][meta hostname=sc2-s5.sambanovasystems.com tid=237584 slurmJobId=38941840] grdu_mask: 0
<181>2022-07-11T00:53:14.337533-07:00 sc2-s5 [surajk][python][237584]: [NOTICE][RSC][meta hostname=sc2-s5.sambanovasystems.com tid=237584 slurmJobId=38941840] Physical RDU 0
<181>2022-07-11T00:53:15.032986-07:00 sc2-s5 [surajk][python][237584]: [NOTICE][RSC][meta hostname=sc2-s5.sambanovasystems.com tid=237584 slurmJobId=38941840] Resource Status: Allocation Success
<181>2022-07-11T00:53:15.109725-07:00 sc2-s5 [surajk][python][237584]: [NOTICE][RSC][meta hostname=sc2-s5.sambanovasystems.com tid=237584 slurmJobId=38941840] grdu_mask: 0
<181>2022-07-11T00:53:15.109906-07:00 sc2-s5 [surajk][python][237584]: [NOTICE][RSC][meta hostname=sc2-s5.sambanovasystems.com tid=237584 slurmJobId=38941840] Physical RDU 0
<181>2022-07-11T00:53:16.115364-07:00 sc2-s5 [surajk][python][237584]: [NOTICE][RSC][meta hostname=sc2-s5.sambanovasystems.com tid=237584 slurmJobId=38941840] Resource Status: Allocation Success
<181>2022-07-11T00:53:16.189144-07:00 sc2-s5 [surajk][python][237584]: [NOTICE][RSC][meta hostname=sc2-s5.sambanovasystems.com tid=237584 slurmJobId=38941840] grdu_mask: 0
<181>2022-07-11T00:53:16.189380-07:00 sc2-s5 [surajk][python][237584]: [NOTICE][RSC][meta hostname=sc2-s5.sambanovasystems.com tid=237584 slurmJobId=38941840] Physical RDU 0
<181>2022-07-11T00:53:19.988398-07:00 sc2-s5 [surajk][python][237584]: [NOTICE][RSC][meta hostname=sc2-s5.sambanovasystems.com tid=237584 slurmJobId=38941840] Resource Status: Allocation Success
<181>2022-07-11T00:53:20.061686-07:00 sc2-s5 [surajk][python][237584]: [NOTICE][RSC][meta hostname=sc2-s5.sambanovasystems.com tid=237584 slurmJobId=38941840] grdu_mask: 0
<181>2022-07-11T00:53:20.061862-07:00 sc2-s5 [surajk][python][237584]: [NOTICE][RSC][meta hostname=sc2-s5.sambanovasystems.com tid=237584 slurmJobId=38941840] Physical RDU 0
<181>2022-07-11T00:53:20.362490-07:00 sc2-s5 [surajk][python][237584]: [NOTICE][RSC][meta hostname=sc2-s5.sambanovasystems.com tid=237584 slurmJobId=38941840] Resource Status: Allocation Success
<181>2022-07-11T00:53:20.437206-07:00 sc2-s5 [surajk][python][237584]: [NOTICE][RSC][meta hostname=sc2-s5.sambanovasystems.com tid=237584 slurmJobId=38941840] grdu_mask: 0
<181>2022-07-11T00:53:20.437353-07:00 sc2-s5 [surajk][python][237584]: [NOTICE][RSC][meta hostname=sc2-s5.sambanovasystems.com tid=237584 slurmJobId=38941840] Physical RDU 0
<181>2022-07-11T00:53:21.284983-07:00 sc2-s5 [surajk][python][237584]: [NOTICE][RSC][meta hostname=sc2-s5.sambanovasystems.com tid=237584 slurmJobId=38941840] Resource Status: Allocation Success
<181>2022-07-11T00:53:21.358120-07:00 sc2-s5 [surajk][python][237584]: [NOTICE][RSC][meta hostname=sc2-s5.sambanovasystems.com tid=237584 slurmJobId=38941840] grdu_mask: 0
<181>2022-07-11T00:53:21.358215-07:00 sc2-s5 [surajk][python][237584]: [NOTICE][RSC][meta hostname=sc2-s5.sambanovasystems.com tid=237584 slurmJobId=38941840] Physical RDU 0
<181>2022-07-11T00:53:21.681482-07:00 sc2-s5 [surajk][python][237584]: [NOTICE][RSC][meta hostname=sc2-s5.sambanovasystems.com tid=237584 slurmJobId=38941840] Resource Status: Allocation Success
<181>2022-07-11T00:53:21.754844-07:00 sc2-s5 [surajk][python][237584]: [NOTICE][RSC][meta hostname=sc2-s5.sambanovasystems.com tid=237584 slurmJobId=38941840] grdu_mask: 0
<181>2022-07-11T00:53:21.755010-07:00 sc2-s5 [surajk][python][237584]: [NOTICE][RSC][meta hostname=sc2-s5.sambanovasystems.com tid=237584 slurmJobId=38941840] Physical RDU 0
<181>2022-07-11T00:53:22.056964-07:00 sc2-s5 [surajk][python][237584]: [NOTICE][RSC][meta hostname=sc2-s5.sambanovasystems.com tid=237584 slurmJobId=38941840] Resource Status: Allocation Success
<181>2022-07-11T00:53:22.130443-07:00 sc2-s5 [surajk][python][237584]: [NOTICE][RSC][meta hostname=sc2-s5.sambanovasystems.com tid=237584 slurmJobId=38941840] grdu_mask: 0
<181>2022-07-11T00:53:22.130595-07:00 sc2-s5 [surajk][python][237584]: [NOTICE][RSC][meta hostname=sc2-s5.sambanovasystems.com tid=237584 slurmJobId=38941840] Physical RDU 0
<181>2022-07-11T00:53:22.428050-07:00 sc2-s5 [surajk][python][237584]: [NOTICE][RSC][meta hostname=sc2-s5.sambanovasystems.com tid=237584 slurmJobId=38941840] Resource Status: Allocation Success
<181>2022-07-11T00:53:22.501016-07:00 sc2-s5 [surajk][python][237584]: [NOTICE][RSC][meta hostname=sc2-s5.sambanovasystems.com tid=237584 slurmJobId=38941840] grdu_mask: 0
<181>2022-07-11T00:53:22.501152-07:00 sc2-s5 [surajk][python][237584]: [NOTICE][RSC][meta hostname=sc2-s5.sambanovasystems.com tid=237584 slurmJobId=38941840] Physical RDU 0
<181>2022-07-11T00:53:22.800372-07:00 sc2-s5 [surajk][python][237584]: [NOTICE][RSC][meta hostname=sc2-s5.sambanovasystems.com tid=237584 slurmJobId=38941840] Resource Status: Allocation Success
<181>2022-07-11T00:53:22.873412-07:00 sc2-s5 [surajk][python][237584]: [NOTICE][RSC][meta hostname=sc2-s5.sambanovasystems.com tid=237584 slurmJobId=38941840] grdu_mask: 0
<181>2022-07-11T00:53:22.873566-07:00 sc2-s5 [surajk][python][237584]: [NOTICE][RSC][meta hostname=sc2-s5.sambanovasystems.com tid=237584 slurmJobId=38941840] Physical RDU 0
<181>2022-07-11T00:53:23.169437-07:00 sc2-s5 [surajk][python][237584]: [NOTICE][RSC][meta hostname=sc2-s5.sambanovasystems.com tid=237584 slurmJobId=38941840] Resource Status: Allocation Success
<181>2022-07-11T00:53:23.242339-07:00 sc2-s5 [surajk][python][237584]: [NOTICE][RSC][meta hostname=sc2-s5.sambanovasystems.com tid=237584 slurmJobId=38941840] grdu_mask: 0
<181>2022-07-11T00:53:23.242427-07:00 sc2-s5 [surajk][python][237584]: [NOTICE][RSC][meta hostname=sc2-s5.sambanovasystems.com tid=237584 slurmJobId=38941840] Physical RDU 0
<181>2022-07-11T00:53:23.536496-07:00 sc2-s5 [surajk][python][237584]: [NOTICE][RSC][meta hostname=sc2-s5.sambanovasystems.com tid=237584 slurmJobId=38941840] Resource Status: Allocation Success
<181>2022-07-11T00:53:23.610128-07:00 sc2-s5 [surajk][python][237584]: [NOTICE][RSC][meta hostname=sc2-s5.sambanovasystems.com tid=237584 slurmJobId=38941840] grdu_mask: 0
<181>2022-07-11T00:53:23.610350-07:00 sc2-s5 [surajk][python][237584]: [NOTICE][RSC][meta hostname=sc2-s5.sambanovasystems.com tid=237584 slurmJobId=38941840] Physical RDU 0
<181>2022-07-11T00:53:23.913121-07:00 sc2-s5 [surajk][python][237584]: [NOTICE][RSC][meta hostname=sc2-s5.sambanovasystems.com tid=237584 slurmJobId=38941840] Resource Status: Allocation Success
<181>2022-07-11T00:53:23.986345-07:00 sc2-s5 [surajk][python][237584]: [NOTICE][RSC][meta hostname=sc2-s5.sambanovasystems.com tid=237584 slurmJobId=38941840] grdu_mask: 0
<181>2022-07-11T00:53:23.986437-07:00 sc2-s5 [surajk][python][237584]: [NOTICE][RSC][meta hostname=sc2-s5.sambanovasystems.com tid=237584 slurmJobId=38941840] Physical RDU 0
<181>2022-07-11T00:53:24.286840-07:00 sc2-s5 [surajk][python][237584]: [NOTICE][RSC][meta hostname=sc2-s5.sambanovasystems.com tid=237584 slurmJobId=38941840] Resource Status: Allocation Success
<181>2022-07-11T00:53:24.360370-07:00 sc2-s5 [surajk][python][237584]: [NOTICE][RSC][meta hostname=sc2-s5.sambanovasystems.com tid=237584 slurmJobId=38941840] grdu_mask: 0
<181>2022-07-11T00:53:24.360459-07:00 sc2-s5 [surajk][python][237584]: [NOTICE][RSC][meta hostname=sc2-s5.sambanovasystems.com tid=237584 slurmJobId=38941840] Physical RDU 0
<181>2022-07-11T00:53:24.649414-07:00 sc2-s5 [surajk][python][237584]: [NOTICE][RSC][meta hostname=sc2-s5.sambanovasystems.com tid=237584 slurmJobId=38941840] Resource Status: Allocation Success
<181>2022-07-11T00:53:24.722256-07:00 sc2-s5 [surajk][python][237584]: [NOTICE][RSC][meta hostname=sc2-s5.sambanovasystems.com tid=237584 slurmJobId=38941840] grdu_mask: 0
<181>2022-07-11T00:53:24.722344-07:00 sc2-s5 [surajk][python][237584]: [NOTICE][RSC][meta hostname=sc2-s5.sambanovasystems.com tid=237584 slurmJobId=38941840] Physical RDU 0
<181>2022-07-11T00:53:25.025134-07:00 sc2-s5 [surajk][python][237584]: [NOTICE][RSC][meta hostname=sc2-s5.sambanovasystems.com tid=237584 slurmJobId=38941840] Resource Status: Allocation Success
<181>2022-07-11T00:53:25.098487-07:00 sc2-s5 [surajk][python][237584]: [NOTICE][RSC][meta hostname=sc2-s5.sambanovasystems.com tid=237584 slurmJobId=38941840] grdu_mask: 0
<181>2022-07-11T00:53:25.098582-07:00 sc2-s5 [surajk][python][237584]: [NOTICE][RSC][meta hostname=sc2-s5.sambanovasystems.com tid=237584 slurmJobId=38941840] Physical RDU 0
<181>2022-07-11T00:53:25.398026-07:00 sc2-s5 [surajk][python][237584]: [NOTICE][RSC][meta hostname=sc2-s5.sambanovasystems.com tid=237584 slurmJobId=38941840] Resource Status: Allocation Success
<181>2022-07-11T00:53:25.472078-07:00 sc2-s5 [surajk][python][237584]: [NOTICE][RSC][meta hostname=sc2-s5.sambanovasystems.com tid=237584 slurmJobId=38941840] grdu_mask: 0
<181>2022-07-11T00:53:25.472162-07:00 sc2-s5 [surajk][python][237584]: [NOTICE][RSC][meta hostname=sc2-s5.sambanovasystems.com tid=237584 slurmJobId=38941840] Physical RDU 0
<181>2022-07-11T00:53:25.759149-07:00 sc2-s5 [surajk][python][237584]: [NOTICE][RSC][meta hostname=sc2-s5.sambanovasystems.com tid=237584 slurmJobId=38941840] Resource Status: Allocation Success
<181>2022-07-11T00:53:25.832937-07:00 sc2-s5 [surajk][python][237584]: [NOTICE][RSC][meta hostname=sc2-s5.sambanovasystems.com tid=237584 slurmJobId=38941840] grdu_mask: 0
<181>2022-07-11T00:53:25.833020-07:00 sc2-s5 [surajk][python][237584]: [NOTICE][RSC][meta hostname=sc2-s5.sambanovasystems.com tid=237584 slurmJobId=38941840] Physical RDU 0
<181>2022-07-11T00:53:26.125642-07:00 sc2-s5 [surajk][python][237584]: [NOTICE][RSC][meta hostname=sc2-s5.sambanovasystems.com tid=237584 slurmJobId=38941840] Resource Status: Allocation Success
<181>2022-07-11T00:53:26.200998-07:00 sc2-s5 [surajk][python][237584]: [NOTICE][RSC][meta hostname=sc2-s5.sambanovasystems.com tid=237584 slurmJobId=38941840] grdu_mask: 0
<181>2022-07-11T00:53:26.201085-07:00 sc2-s5 [surajk][python][237584]: [NOTICE][RSC][meta hostname=sc2-s5.sambanovasystems.com tid=237584 slurmJobId=38941840] Physical RDU 0
<181>2022-07-11T00:53:26.514074-07:00 sc2-s5 [surajk][python][237584]: [NOTICE][RSC][meta hostname=sc2-s5.sambanovasystems.com tid=237584 slurmJobId=38941840] Resource Status: Allocation Success
<181>2022-07-11T00:53:26.589722-07:00 sc2-s5 [surajk][python][237584]: [NOTICE][RSC][meta hostname=sc2-s5.sambanovasystems.com tid=237584 slurmJobId=38941840] grdu_mask: 0
<181>2022-07-11T00:53:26.589807-07:00 sc2-s5 [surajk][python][237584]: [NOTICE][RSC][meta hostname=sc2-s5.sambanovasystems.com tid=237584 slurmJobId=38941840] Physical RDU 0
<181>2022-07-11T00:53:26.879621-07:00 sc2-s5 [surajk][python][237584]: [NOTICE][RSC][meta hostname=sc2-s5.sambanovasystems.com tid=237584 slurmJobId=38941840] Resource Status: Allocation Success
<181>2022-07-11T00:53:26.953604-07:00 sc2-s5 [surajk][python][237584]: [NOTICE][RSC][meta hostname=sc2-s5.sambanovasystems.com tid=237584 slurmJobId=38941840] grdu_mask: 0
<181>2022-07-11T00:53:26.953763-07:00 sc2-s5 [surajk][python][237584]: [NOTICE][RSC][meta hostname=sc2-s5.sambanovasystems.com tid=237584 slurmJobId=38941840] Physical RDU 0
<181>2022-07-11T00:53:27.253816-07:00 sc2-s5 [surajk][python][237584]: [NOTICE][RSC][meta hostname=sc2-s5.sambanovasystems.com tid=237584 slurmJobId=38941840] Resource Status: Allocation Success
<181>2022-07-11T00:53:27.328704-07:00 sc2-s5 [surajk][python][237584]: [NOTICE][RSC][meta hostname=sc2-s5.sambanovasystems.com tid=237584 slurmJobId=38941840] grdu_mask: 0
<181>2022-07-11T00:53:27.329107-07:00 sc2-s5 [surajk][python][237584]: [NOTICE][RSC][meta hostname=sc2-s5.sambanovasystems.com tid=237584 slurmJobId=38941840] Physical RDU 0
<181>2022-07-11T00:53:27.626974-07:00 sc2-s5 [surajk][python][237584]: [NOTICE][RSC][meta hostname=sc2-s5.sambanovasystems.com tid=237584 slurmJobId=38941840] Resource Status: Allocation Success
<181>2022-07-11T00:53:27.704918-07:00 sc2-s5 [surajk][python][237584]: [NOTICE][RSC][meta hostname=sc2-s5.sambanovasystems.com tid=237584 slurmJobId=38941840] grdu_mask: 0
<181>2022-07-11T00:53:27.705069-07:00 sc2-s5 [surajk][python][237584]: [NOTICE][RSC][meta hostname=sc2-s5.sambanovasystems.com tid=237584 slurmJobId=38941840] Physical RDU 0
<181>2022-07-11T00:53:28.005211-07:00 sc2-s5 [surajk][python][237584]: [NOTICE][RSC][meta hostname=sc2-s5.sambanovasystems.com tid=237584 slurmJobId=38941840] Resource Status: Allocation Success
<181>2022-07-11T00:53:28.079058-07:00 sc2-s5 [surajk][python][237584]: [NOTICE][RSC][meta hostname=sc2-s5.sambanovasystems.com tid=237584 slurmJobId=38941840] grdu_mask: 0
<181>2022-07-11T00:53:28.079229-07:00 sc2-s5 [surajk][python][237584]: [NOTICE][RSC][meta hostname=sc2-s5.sambanovasystems.com tid=237584 slurmJobId=38941840] Physical RDU 0
<181>2022-07-11T00:53:28.383225-07:00 sc2-s5 [surajk][python][237584]: [NOTICE][RSC][meta hostname=sc2-s5.sambanovasystems.com tid=237584 slurmJobId=38941840] Resource Status: Allocation Success
<181>2022-07-11T00:53:28.457140-07:00 sc2-s5 [surajk][python][237584]: [NOTICE][RSC][meta hostname=sc2-s5.sambanovasystems.com tid=237584 slurmJobId=38941840] grdu_mask: 0
<181>2022-07-11T00:53:28.457226-07:00 sc2-s5 [surajk][python][237584]: [NOTICE][RSC][meta hostname=sc2-s5.sambanovasystems.com tid=237584 slurmJobId=38941840] Physical RDU 0
<181>2022-07-11T00:53:28.760636-07:00 sc2-s5 [surajk][python][237584]: [NOTICE][RSC][meta hostname=sc2-s5.sambanovasystems.com tid=237584 slurmJobId=38941840] Resource Status: Allocation Success
<181>2022-07-11T00:53:28.834770-07:00 sc2-s5 [surajk][python][237584]: [NOTICE][RSC][meta hostname=sc2-s5.sambanovasystems.com tid=237584 slurmJobId=38941840] grdu_mask: 0
<181>2022-07-11T00:53:28.834840-07:00 sc2-s5 [surajk][python][237584]: [NOTICE][RSC][meta hostname=sc2-s5.sambanovasystems.com tid=237584 slurmJobId=38941840] Physical RDU 0
<181>2022-07-11T00:53:29.131551-07:00 sc2-s5 [surajk][python][237584]: [NOTICE][RSC][meta hostname=sc2-s5.sambanovasystems.com tid=237584 slurmJobId=38941840] Resource Status: Allocation Success
<181>2022-07-11T00:53:29.205495-07:00 sc2-s5 [surajk][python][237584]: [NOTICE][RSC][meta hostname=sc2-s5.sambanovasystems.com tid=237584 slurmJobId=38941840] grdu_mask: 0
<181>2022-07-11T00:53:29.205646-07:00 sc2-s5 [surajk][python][237584]: [NOTICE][RSC][meta hostname=sc2-s5.sambanovasystems.com tid=237584 slurmJobId=38941840] Physical RDU 0
<181>2022-07-11T00:53:29.504117-07:00 sc2-s5 [surajk][python][237584]: [NOTICE][RSC][meta hostname=sc2-s5.sambanovasystems.com tid=237584 slurmJobId=38941840] Resource Status: Allocation Success
<181>2022-07-11T00:53:29.578196-07:00 sc2-s5 [surajk][python][237584]: [NOTICE][RSC][meta hostname=sc2-s5.sambanovasystems.com tid=237584 slurmJobId=38941840] grdu_mask: 0
<181>2022-07-11T00:53:29.578347-07:00 sc2-s5 [surajk][python][237584]: [NOTICE][RSC][meta hostname=sc2-s5.sambanovasystems.com tid=237584 slurmJobId=38941840] Physical RDU 0
<181>2022-07-11T00:53:29.880184-07:00 sc2-s5 [surajk][python][237584]: [NOTICE][RSC][meta hostname=sc2-s5.sambanovasystems.com tid=237584 slurmJobId=38941840] Resource Status: Allocation Success
<181>2022-07-11T00:53:29.954376-07:00 sc2-s5 [surajk][python][237584]: [NOTICE][RSC][meta hostname=sc2-s5.sambanovasystems.com tid=237584 slurmJobId=38941840] grdu_mask: 0
<181>2022-07-11T00:53:29.954467-07:00 sc2-s5 [surajk][python][237584]: [NOTICE][RSC][meta hostname=sc2-s5.sambanovasystems.com tid=237584 slurmJobId=38941840] Physical RDU 0
<181>2022-07-11T00:53:30.252608-07:00 sc2-s5 [surajk][python][237584]: [NOTICE][RSC][meta hostname=sc2-s5.sambanovasystems.com tid=237584 slurmJobId=38941840] Resource Status: Allocation Success
<181>2022-07-11T00:53:30.326508-07:00 sc2-s5 [surajk][python][237584]: [NOTICE][RSC][meta hostname=sc2-s5.sambanovasystems.com tid=237584 slurmJobId=38941840] grdu_mask: 0
<181>2022-07-11T00:53:30.326660-07:00 sc2-s5 [surajk][python][237584]: [NOTICE][RSC][meta hostname=sc2-s5.sambanovasystems.com tid=237584 slurmJobId=38941840] Physical RDU 0
<181>2022-07-11T00:53:30.622383-07:00 sc2-s5 [surajk][python][237584]: [NOTICE][RSC][meta hostname=sc2-s5.sambanovasystems.com tid=237584 slurmJobId=38941840] Resource Status: Allocation Success
<181>2022-07-11T00:53:30.696741-07:00 sc2-s5 [surajk][python][237584]: [NOTICE][RSC][meta hostname=sc2-s5.sambanovasystems.com tid=237584 slurmJobId=38941840] grdu_mask: 0
<181>2022-07-11T00:53:30.696832-07:00 sc2-s5 [surajk][python][237584]: [NOTICE][RSC][meta hostname=sc2-s5.sambanovasystems.com tid=237584 slurmJobId=38941840] Physical RDU 0
<181>2022-07-11T00:53:31.001390-07:00 sc2-s5 [surajk][python][237584]: [NOTICE][RSC][meta hostname=sc2-s5.sambanovasystems.com tid=237584 slurmJobId=38941840] Resource Status: Allocation Success
<181>2022-07-11T00:53:31.080079-07:00 sc2-s5 [surajk][python][237584]: [NOTICE][RSC][meta hostname=sc2-s5.sambanovasystems.com tid=237584 slurmJobId=38941840] grdu_mask: 0
<181>2022-07-11T00:53:31.080265-07:00 sc2-s5 [surajk][python][237584]: [NOTICE][RSC][meta hostname=sc2-s5.sambanovasystems.com tid=237584 slurmJobId=38941840] Physical RDU 0
<181>2022-07-11T00:53:31.371020-07:00 sc2-s5 [surajk][python][237584]: [NOTICE][RSC][meta hostname=sc2-s5.sambanovasystems.com tid=237584 slurmJobId=38941840] Resource Status: Allocation Success
<181>2022-07-11T00:53:31.444877-07:00 sc2-s5 [surajk][python][237584]: [NOTICE][RSC][meta hostname=sc2-s5.sambanovasystems.com tid=237584 slurmJobId=38941840] grdu_mask: 0
<181>2022-07-11T00:53:31.445036-07:00 sc2-s5 [surajk][python][237584]: [NOTICE][RSC][meta hostname=sc2-s5.sambanovasystems.com tid=237584 slurmJobId=38941840] Physical RDU 0
<181>2022-07-11T00:53:31.742491-07:00 sc2-s5 [surajk][python][237584]: [NOTICE][RSC][meta hostname=sc2-s5.sambanovasystems.com tid=237584 slurmJobId=38941840] Resource Status: Allocation Success
<181>2022-07-11T00:53:31.816454-07:00 sc2-s5 [surajk][python][237584]: [NOTICE][RSC][meta hostname=sc2-s5.sambanovasystems.com tid=237584 slurmJobId=38941840] grdu_mask: 0
<181>2022-07-11T00:53:31.816741-07:00 sc2-s5 [surajk][python][237584]: [NOTICE][RSC][meta hostname=sc2-s5.sambanovasystems.com tid=237584 slurmJobId=38941840] Physical RDU 0
<181>2022-07-11T00:53:32.114541-07:00 sc2-s5 [surajk][python][237584]: [NOTICE][RSC][meta hostname=sc2-s5.sambanovasystems.com tid=237584 slurmJobId=38941840] Resource Status: Allocation Success
<181>2022-07-11T00:53:32.188754-07:00 sc2-s5 [surajk][python][237584]: [NOTICE][RSC][meta hostname=sc2-s5.sambanovasystems.com tid=237584 slurmJobId=38941840] grdu_mask: 0
<181>2022-07-11T00:53:32.188848-07:00 sc2-s5 [surajk][python][237584]: [NOTICE][RSC][meta hostname=sc2-s5.sambanovasystems.com tid=237584 slurmJobId=38941840] Physical RDU 0
<181>2022-07-11T00:53:32.473636-07:00 sc2-s5 [surajk][python][237584]: [NOTICE][RSC][meta hostname=sc2-s5.sambanovasystems.com tid=237584 slurmJobId=38941840] Resource Status: Allocation Success
<181>2022-07-11T00:53:32.547886-07:00 sc2-s5 [surajk][python][237584]: [NOTICE][RSC][meta hostname=sc2-s5.sambanovasystems.com tid=237584 slurmJobId=38941840] grdu_mask: 0
<181>2022-07-11T00:53:32.548056-07:00 sc2-s5 [surajk][python][237584]: [NOTICE][RSC][meta hostname=sc2-s5.sambanovasystems.com tid=237584 slurmJobId=38941840] Physical RDU 0
<181>2022-07-11T00:53:49.769363-07:00 sc2-s5 [surajk][python][237584]: [NOTICE][RSC][meta hostname=sc2-s5.sambanovasystems.com tid=237584 slurmJobId=38941840] Resource Status: Allocation Success
<181>2022-07-11T00:53:49.843347-07:00 sc2-s5 [surajk][python][237584]: [NOTICE][RSC][meta hostname=sc2-s5.sambanovasystems.com tid=237584 slurmJobId=38941840] grdu_mask: 0
<181>2022-07-11T00:53:49.843518-07:00 sc2-s5 [surajk][python][237584]: [NOTICE][RSC][meta hostname=sc2-s5.sambanovasystems.com tid=237584 slurmJobId=38941840] Physical RDU 0

SlurmJobInfo(state='COMPLETED', elapsed_string='00:00:54', elapsed_seconds=54, start_time='2022-07-11T07:52:59', exit_code=0, exit_signal=0, host='sc2-s5', os='ubuntu 20.04')
